Project/saved_models/discriminator_v2.pth (torch, 551804 bytes, 9 tensors)

model.0.weight f4 [64, 3, 4, 4]
00000000: d31d 50bd f9b4 09be a5f0 a6bd cb3d 04bb
00000010: a249 b93d 16af d83b 6b39 073e 68c1 80bd
00000020: 114e a73c 1ea2 ea3d f52a d13d 578a a3bd
00000030: 8c34 a83d fddb cfbc 1d94 c9bd c96f af3d
00000040: 9772 6ebd d1b6 04be 73da e4bc d0d6 e63d
00000050: d663 abbc d745 ff3c f547 a53c db4e 743d
00000060: 1c78 8abc 6e1a d5bc 048b e03d 83de da3c
00000070: ec4a 4dbb eb6b 9b3c eac9 d23c 258a 0cbe
00000080: 3b86 1dbc 1820 37b8 611d 2cbd 9ad3 4c3d
00000090: 724b 07be 15a8 a83d 302d 37bd 24d0 983c
000000a0: 60b0 e1bd 4277 aa3d 25da 8b3b 9bda ebbb
000000b0: 6318 fc3d c7ab df3d 87de 20bd 3947 a5bc
000000c0: bbbb 213d 54b8 a83c 921f 0b3c 711d de3d
000000d0: 47ef 633d 2438 023d aa00 9abc 708c f5bd
000000e0: b6bf dd3d 015b 503d 2f5c aebd 8edd efb8
000000f0: c7cb 0ebe 0913 143e 125f e33d 7d78 a0bd
00000100: d4e7 27bd 6e8d fc3c 4089 b7bd d92b 043e
00000110: e1c8 86bd 7d8f 08be 3fa3 1e3d 46fd 3dbb
00000120: 40d5 88bd 614b 8c3d 47b5 26bd b7f7 14be
00000130: a31c 22bc 9203 e63d e6b5 97bd 936e 96bd
00000140: 772f c73d b4e4 b93d ec17 37bc 54f1 ba3c
00000150: e952 0abe c00f fc3d 9312 0fbe 5ce0 18be
00000160: 3baa d03b ba20 8c3d ee5a 4dbd 78fe 733d
00000170: 392c df3d bf28 d73d 5b05 50bd 9030 a23c
00000180: 26c7 e73d 52be 60bd 8000 c73b b664 eb3c
00000190: 2deb 783d 61d4 6abd 0a21 aebb e2f8 c0bd
000001a0: 490f 00be b240 17bd d91e 3a3d f9ff 9b3d
000001b0: f7bc 4bbd f131 693d cfab 51bd fac1 41bd
000001c0: 5cd7 4d3d 7efc d1bd 0652 53bc ab06 01be
000001d0: f189 13bd e310 d3bd ceea d93d 3d2d e5bb
000001e0: 39f9 be3d 3f1a d1bc cf35 8c3d 3afa bc3d
000001f0: 5dfb 80bd ccaf 53bd 9df1 be3d 8633 efbb
00000200: 77f4 f83d f112 303d 550c d0bd e87a 4dbd
00000210: 1734 efbd 915e b03d 4752 38bd 5769 8c3d
00000220: 706c 4fbd 8780 023e 6724 5bbd 6ead 9e3d
00000230: 3591 01be 32d4 8bbd f75a da3d 2f36 e23c
00000240: 9570 ddbd 87d9 cd3d fccd adbd 654e 9f3d
00000250: 04ee 1b3d b6ad babd 0571 dfbd 9a02 ccbd
00000260: e337 e7bd 0546 983d 2957 74bd 03b4 2ebd
00000270: 7fd8 92bd 2126 eabd 561f 0a3c b9eb 7e3d
00000280: 9a02 6fbc 6362 d6ba 73a7 c23d 27fa 443d
00000290: b984 3f3c fea0 843b 62ef b7bd 4dab 543c
000002a0: 926c ea3d e702 bbbd ecb3 903d 7a2f 213d
000002b0: 0c97 363d 7ee5 dfbd 8005 ea3d c70b ed3d
000002c0: 58f5 91bd fc2d abbd 424b c1bd cc0c e13d
000002d0: d7e1 e13d ae22 9c3c ee3e 9bbd 6167 cfbd
000002e0: 112d aebd be18 acbc 355a 01be 91d8 8bbd
000002f0: 883d d2bd 52fd 003e fb50 b13d 0717 afbd
00000300: d65e e33d f11f 7c3d 45b2 c3bd 0578 d239
00000310: ea67 f63d d302 3bbd 272e 863d 1927 ecbd
00000320: 7c72 19bd c5ed b13d e177 babc 481d 1d3e
00000330: 131c adbd 914f 8dbd 209f 1ebe 9153 eabd
00000340: 956f 73bd 5f6d 433d d095 e83c c909 e1bc
00000350: 7adf 393d c152 a0bd 6617 783d e666 4fbc
00000360: d4ce ebbd ce6b 7ebc 9f27 5abd 5e91 973d
00000370: 0fb0 8dbd 8c28 c83d 92d1 053d 7afd 12be
00000380: 2a6d 90bd 701a 20bd 814f 0cbd 03da e9bd
00000390: 345b 3b3d 3f2c c13d ce6e 0b3e 5462 bfbd
000003a0: 4b93 0abe 9822 9e3d 378b d23d 8643 073e
000003b0: fef4 ce3b 2e1f 99bd 48b0 c4bd b54f f2bc
000003c0: 115c a33d 8eb5 393d 234e 1c3d b077 063e
000003d0: cb18 573d f019 0dbe a367 6dbd 22d9 ccbd
000003e0: 7888 d63d 2d75 93bd a498 87bd 1153 f53d
000003f0: cf6c db3c 2049 9dbd bb23 8bbd 7bb0 183d
-0.050809693 -0.13447942 -0.08151368 -0.0020178433 0.090472475 0.0066126687 0.13205497 -0.06286889
0.020422967 0.11456703 0.102132715 -0.079853706 0.082131475 -0.025373453 -0.098427035 0.08566243
-0.05821475 -0.12960364 -0.027936196 0.11271441 -0.020921629 0.031161232 0.020175913 0.059645515
-0.016902976 -0.02601358 0.10964015 0.02671743 -0.0031325174 0.018972358 0.025731046 -0.13724573
-0.009614523 -4.366049e-05 -0.042020205 0.050006486 -0.13212374 0.08235184 -0.04472083 0.018653937
-0.11019969 0.08323528 0.004267948 -0.0071976907 0.12309339 0.10921436 -0.03927472 -0.020175563
0.039485674 0.020595707 0.008491414 0.10845459 0.055648115 0.03179182 -0.018799145 -0.11989677
0.108275816 0.050868038 -0.085136764 -0.00011437676 -0.13944922 0.14460386 0.111021176 -0.07835481
-0.040992573 0.030829158 -0.08961725 0.12907352 -0.06581283 -0.13335986 0.038729902 -0.0028990074
-0.06681299 0.06850315 -0.040700223 -0.1454762 -0.009894523 0.1123115 -0.07407741 -0.07345309
0.0972585 0.09076825 -0.011175137 0.022820152 -0.1350819 0.123076916 -0.13971929 -0.14929336
0.0063679493 0.068421796 -0.050135545 0.059568852 0.10897107 0.105058186 -0.050786357 0.019798547
0.113172814 -0.054869004 0.0060730577 0.028734546 0.060771156 -0.057331447 -0.005313997 -0.09422471
-0.12505831 -0.036926933 0.045439575 0.07617182 -0.049740758 0.056932393 -0.05118924 -0.04730413
0.05025421 -0.10253237 -0.012897974 -0.126002 -0.036020223 -0.10305955 0.106404886 -0.006993918
0.09324879 -0.02552521 0.06846201 0.092274144 -0.06297944 -0.051681325 0.09323428 -0.0072998432
0.12156003 0.042986814 -0.10158602 -0.05016604 -0.11679857 0.08611787 -0.04500034 0.068560295
-0.050640523 0.12744342 -0.053501513 0.07747923 -0.12653048 -0.068275824 0.106618814 0.027613727
-0.10812489 0.10051256 -0.08486554 0.077786244 0.038068786 -0.09115164 -0.10910229 -0.09961434
-0.112899564 0.0743523 -0.059653435 -0.04265214 -0.071701996 -0.11433054 0.008430323 0.06223652
-0.014588023 -0.0016356226 0.09504595 0.048090126 0.011689358 0.004047512 -0.089812055 0.012980294
0.114464894 -0.09131413 0.070655674 0.039351918 0.044577643 -0.10932444 0.1142683 0.11574512
-0.07126874 -0.0835838 -0.094381824 0.10988769 0.11029404 0.019059505 -0.07580362 -0.1012714
-0.085046895 -0.021007892 -0.12632068 -0.06828416 -0.102656424 0.12596634 0.08658024 -0.08549314
0.11102073 0.0615539 -0.095554866 0.00040143743 0.12031539 -0.04565699 0.065517716 -0.11530895
-0.037462696 0.08687929 -0.02276224 0.15343201 -0.0845262 -0.06899942 -0.15490389 -0.1144172
-0.059432585 0.047711726 0.028391749 -0.027470486 0.04537914 -0.07828284 0.06056919 -0.01265881
-0.11514059 -0.015528632 -0.053260442 0.074007735 -0.06918346 0.09773359 0.032670565 -0.14354506
-0.070520714 -0.039087713 -0.03425551 -0.114185356 0.045741275 0.094322674 0.13616487 -0.093449265
-0.1353275 0.07721442 0.102804594 0.13209352 0.0063158264 -0.0747665 -0.096039355 -0.029579023
0.07976545 0.04533916 0.038160454 0.13131595 0.05251388 -0.13779426 -0.057960164 -0.10002352
0.10475248 -0.07200084 -0.06620911 0.11978734 0.026785282 -0.07679963 -0.067939244 0.03727768

model.0.bias f4 [64]
00000000: f46c 8c3d d986 113e ce19 103e f9c6 75bd
00000010: acae 7e3d f77a e5bd b39a c63d 6a9c bd3b
00000020: 7b0b 633d 527c e03d 1c29 043e ed8f 163d
00000030: a55c 453b ad97 46bd be5a b83b 2547 dd3d
00000040: 193a 2e3e a5cd e13d 75c7 c0bd 58a7 463d
00000050: 6d1e 8e3d 5507 123e 188e 343e 3afd 393d
00000060: 643d bc3d 6125 5d3b 2d61 523e f9f9 dabd
00000070: 1631 503d f334 69bc 15e6 0ebe 7f2b 9a3d
00000080: 5f38 a03d f714 24bd 28c5 e03a aa53 02bd
00000090: 7923 1a3e f43a a7bd a5e8 f1bd 261c 0cbe
000000a0: 6de4 f53d fab0 29ba 8529 263e 6051 a73b
000000b0: c807 0f3d 33de f23d cd90 b8bb 31a1 4f3d
000000c0: c306 3d3e a26f 983d f114 263d 225d 02be
000000d0: bccd 76bc 6d77 6c3d 9cfa 16be 7832 743d
000000e0: 26b6 373d 9090 f33d 553a 753d c747 963d
000000f0: bbfa 19be e4da 0fbe 85b4 583e fd9e d5bd
0.06856719 0.14211597 0.14072344 -0.06000421 0.0621783 -0.11205094 0.09697475 0.0057864683
0.05543087 0.10961212 0.12906307 0.036758352 0.0030115035 -0.048484493 0.0056260517 0.10804585
0.1701435 0.11025552 -0.094130434 0.048499435 0.06939397 0.1426061 0.1763233 0.04540751
0.09191397 0.0033744203 0.20544882 -0.1069221 0.050828062 -0.0142338155 -0.13954957 0.075278275
0.07823252 -0.040059056 0.0017148601 -0.03181807 0.15052594 -0.08165541 -0.118119515 -0.13682613
0.120064594 -0.000647321 0.16226776 0.005106136 0.03491953 0.118587874 -0.005632496 0.050690833
0.1845961 0.07443167 0.040547315 -0.1273084 -0.015063699 0.05773108 -0.14744037 0.059618443
0.044851445 0.118928075 0.059870083 0.07337909 -0.15037052 -0.14048344 0.21162613 -0.10430715

model.2.weight f4 [128, 64, 4, 4]
00000000: 52f6 45bb 7684 bebc 4a0e e2bc e43d 56bb
00000010: e45d 66ba d1d9 cc3c 6094 383c f5a4 d2bc
00000020: 0bc4 a43c 87b0 703c d603 c73c e2d9 983b
00000030: a7ae 52bc 9f1b 40bc fe36 de3c 7507 a63c
00000040: 9d47 88bc 076e 92bb 9cbf 52bb 225e 9bbc
00000050: ef68 0e3d b618 9cbc 88dd f33c 1d20 86bc
00000060: 6856 2b3c c9d5 e13c 5e36 4abc 580c b23c
00000070: 35cc a9bc 9758 76bc bd27 8f3c 66ef 3e3c
00000080: f7cf 64bc 820c c93b 316a 6bbc 3db4 9e3c
00000090: 4ef2 523b d0c8 76bc 6a1e bb3c bd2d 003c
000000a0: dc6b 8f3c b74b ca3a 9b8f 653c 87e7 8b3c
000000b0: 4130 883c fecc 2c3b a914 41bb d712 8cbc
000000c0: c226 eb3b 092e c43a a14a e13c 2476 773c
000000d0: 2d05 ef3a 0f9f 863c 191e 0b3c b34d 173a
000000e0: 487e 82bb 63c4 43bb f028 a83c 07f8 db3c
000000f0: 9f22 903c 60c2 043c d3c5 573c 7f11 da3c
00000100: f2cc a33c 1595 47bb edf3 823c 1555 b9ba
00000110: b23e 003d b29b 9ebb 0507 84bc 466d 93ba
00000120: 7ed2 c83c e7fc 9dbc 1f2e a0bc d4ad d4bc
00000130: 2c31 92bb 3cf9 9fba 3373 ea3c fa5b 773c
00000140: 7906 0a3d 916e 153d a88d cd3c 0085 7dbc
00000150: 9e51 efbc 6a87 ce3c 19e8 56bc f68a 2bbc
00000160: b71c 08bc 0026 053d 47ac 62bc 5478 90bc
00000170: e846 a33c 1712 013d 3a7e 06bc 8e69 e2bc
00000180: 1684 d83c 7f68 8a3a 6262 d6bb e935 9bbc
00000190: 5369 f5bc 9268 b1bc 88fa 5ebb c7ef cabb
000001a0: 5a04 ab3c 11e0 873b 52da 8dbc cfef b03c
000001b0: a211 a7b8 803d e73c 49bc 2d3c f5c1 a53c
000001c0: cafa a2bc 8cd6 b93c d20b bd3c 792a ae3c
000001d0: 4e50 083d 576c ccba cdd5 9cbb e6b7 c3bb
000001e0: f5db 963b 0e31 a8bc 41bc ebbc 9768 e33c
000001f0: 65df d83c 5a94 e0bb 8892 bc3b 34ff b83c
00000200: 0452 aebb a2a1 81bc 69ed d43c 7a7e 8dbc
00000210: 1471 793c 0e36 053d 93f3 d9bc b256 32bb
00000220: 8d8a 183c 1c44 903c 591d c0bc 5797 aa3b
00000230: 675e ccbc dd99 793a 769d 103c 206b 5a3c
00000240: 4265 45bc af36 ee3c a0fc 553c 7ccc 9bbc
00000250: e1b2 853c bbff 94bc 1c9e b13c 7960 bd3c
00000260: 4b52 ddbc 5da5 50bc fddc dd3c 29e8 cfbb
00000270: 2069 0abc bfd1 163c 3975 52bc d685 41bc
00000280: 73bb dc3c 4997 0f3c b71f abbc 30f6 29bc
00000290: 736d 7b3c fd52 043c 7660 22bb 4c3e a33c
000002a0: dca8 e23c 3fda 4b3c a2fd c0bc fa2c 01bc
000002b0: ac25 ebbc cee8 e33c e2a1 1ebd 32fa c0bc
000002c0: 4312 87bc ae66 e0bc ffec d0bb 4b56 adbc
000002d0: 2eb0 8dbc 4207 843c a66c 2f3c 0205 2ebc
000002e0: 61d7 b73c c56d 263c d795 8d3b 9d44 bebc
000002f0: 7606 deba b67e aa3c a9da 793c c86f 99bc
00000300: 4617 8bbc afe6 0bbc 3ef1 58bc fbdd 17bd
00000310: 8e2b de3c 4d6b 183d b484 d83c 1e9b a5bc
00000320: a2c9 ad3c 856a d63c 288f 78bc 37ad c0bc
00000330: 6f81 643c 0eac f83c 6ae1 d3bb 9776 c8bb
00000340: 1dc0 8bbc 259c 9a3c 616d 783c 1a44 07bd
00000350: ce76 a63c a75b 9ebc d9e3 3e3b 063c 40bb
00000360: 7b1a 2c3b 4b5d 523c 5120 c6bc 57e8 863c
00000370: 2626 15bb cc19 24bc c1c3 003d 3569 51bc
00000380: 279e f3bb 5979 c2ba b9e2 cabc 9718 8cbc
00000390: f9d8 d6bc 7ab0 3ebb 3d94 483c 953a 163d
000003a0: 6a76 5dbc 2afe 3e3c 7160 fb3c f211 913c
000003b0: 30b7 8c3c 6f30 543c 5861 a83c a00d cabb
000003c0: 9d4f 2c3c d7d8 28bc a1b9 783b 8b77 d9ba
000003d0: 993c 613a eb1d d9bb 2a88 8a3c 85f5 293c
000003e0: 9511 d1bc 7cbe 9c3c bc2a c6bc 588a d6bc
000003f0: 1bef 57bc 28b2 e1bc c3ae 36bc 1c34 e9bc
-0.0030206633 -0.023256522 -0.027594704 -0.0032690698 -0.00087877945 0.025006207 0.011265844 -0.025713423
0.020113012 0.014690525 0.024293821 0.0046646455 -0.012859023 -0.011725335 0.027125832 0.020267228
-0.01663571 -0.0044686827 -0.0032157665 -0.018965784 0.03476804 -0.019054752 0.02976872 -0.016372735
0.010457613 0.027567761 -0.012342064 0.021734402 -0.020727256 -0.01503577 0.017475003 0.011653757
-0.013965598 0.0061355243 -0.01436858 0.019373054 0.0032187882 -0.015062526 0.022841651 0.007823405
0.017507486 0.0015433942 0.014011289 0.017078174 0.016624572 0.0026367302 -0.0029461777 -0.017098827
0.007176251 0.0014967333 0.027501406 0.0151038505 0.0018235795 0.016433267 0.008491063 0.0005771771
-0.003982339 -0.0029871694 0.020527333 0.026851667 0.017594634 0.008102983 0.013169724 0.02661967
0.019995186 -0.003045385 0.015985454 -0.0014139736 0.03130979 -0.0048403377 -0.016116628 -0.0011247776
0.024514433 -0.019285632 -0.019553242 -0.025961794 -0.004461428 -0.0012205015 0.028619384 0.0150976125
0.03369758 0.036482397 0.025091961 -0.015473604 -0.029213723 0.025211055 -0.01311686 -0.010470143
-0.008307627 0.032506943 -0.013835019 -0.017635502 0.019931272 0.031511392 -0.008208806 -0.027638223
0.026430171 0.0010559707 -0.00654249 -0.018946605 -0.029957449 -0.021656308 -0.003402384 -0.0061931345
0.020876098 0.004146584 -0.017316017 0.021598725 -7.966465e-05 0.028227568 0.010603973 0.020234087
-0.019894976 0.022685312 0.023076925 0.021260487 0.03327971 -0.0015596253 -0.004786229 -0.00597285
0.0046038576 -0.020531204 -0.02877629 0.027759833 0.02647371 -0.0068536224 0.0057547726 0.022582628
-0.0053198356 -0.015824143 0.025992112 -0.017272223 0.015224714 0.032522254 -0.026605403 -0.002721232
0.009310377 0.017610602 -0.023451494 0.0052060294 -0.024947358 0.00095215236 0.008826604 0.013331205
-0.0120480675 0.02907881 0.013060719 -0.019018404 0.016320648 -0.018188348 0.021681838 0.02311729
-0.02701678 -0.012734738 0.027082914 -0.0063448143 -0.008447915 0.009205281 -0.012845331 -0.011811694
0.026944852 0.008764097 -0.020889146 -0.010373637 0.015345919 0.008076427 -0.0024776733 0.019927166
0.027668409 0.012442171 -0.023558442 -0.007884258 -0.028704487 0.02782097 -0.038728602 -0.023556802
-0.0164882 -0.027392711 -0.0063759084 -0.021159312 -0.017295923 0.016116742 0.010707056 -0.010621311
0.022441568 0.010158007 0.004320841 -0.023226077 -0.0016939181 0.020812374 0.015249887 -0.01873006
-0.016978871 -0.008538886 -0.01324111 -0.03707693 0.027120378 0.037211705 0.026430465 -0.020215567
0.02121431 0.02617384 -0.01517085 -0.023520095 0.013946875 0.03035548 -0.0064660804 -0.0061176526
-0.01705938 0.018873284 0.015162797 -0.03302393 0.020320322 -0.019330813 0.0029127507 -0.0029332652
0.00262609 0.012839626 -0.024185332 0.01646821 -0.0022758334 -0.010015916 0.031436685 -0.012781431
-0.0074346247 -0.001483719 -0.024766313 -0.01710157 -0.026226507 -0.0029096887 0.012242374 0.036676962
-0.013517002 0.011657277 0.030685635 0.017708752 0.017177194 0.012951001 0.02055423 -0.006166175
0.010517028 -0.010305605 0.003795244 -0.0016591413 0.00085920986 -0.006625881 0.016910631 0.010373478
-0.02552108 0.019133799 -0.0241903 -0.026189014 -0.013179566 -0.027550772 -0.011150065 -0.02846723

model.2.bias f4 [128]
00000000: 44dc 7c3c 58a2 5e3c fdee 42bb bce9 893c
00000010: d143 1fbc bfd1 4dbc 563f 283c 3562 04bb
00000020: e974 0d3c 1991 c2bb 2102 06bd 9b33 c73c
00000030: 87bc ed3c d08c b13b aa2e a8bb f4c7 9738
00000040: 14f9 99bc cd96 b83c bf4a 713c b1f1 2e3c
00000050: b49c bebc e8fa b9bc 71c5 d4bc 68fa 19bd
00000060: 9c61 753c 7743 423c 709e 3c3c cb8d 6dbb
00000070: 9be2 f1bc 07ea 64bc 7010 8ebc 0bc6 d13b
00000080: 4d90 0c3d d0ff 5abc a9c7 193c 94f9 d63c
00000090: 5904 b23c e9e4 f1bb 6c86 7f3c abff 8abc
000000a0: 1063 87bc 6af5 cbbc dfb3 253d 2259 993c
000000b0: ec13 1dbc a59c e63c 7e52 e73b 651b ce3c
000000c0: ab93 583b 5a8f be3b e741 f13c c388 bd3c
000000d0: c05d bc3c dd9a 983c a1b0 773c b099 f23c
000000e0: 6ba6 d03c 516b 8d3c 8302 b9bc c731 9d3c
000000f0: 3706 f03a 6d45 d4bc f317 f93b 0c2d 01bd
00000100: 48a8 0bbb 434a ebbb 772e d73c 15f4 c73c
00000110: bc06 393c 8cb0 fbb9 ea14 57bc 4fc7 2ebc
00000120: 4c45 98bc 3178 4e3c 4e01 0cbd c98d b73c
00000130: c36a 8cbc e8e3 f73c 3bd0 e5bb 3d01 053c
00000140: b8fb 263c 60a8 d0bc 98d4 37bc 7bf5 f73c
00000150: 03eb 963c cd86 94bc 0720 433c a34e 08bc
00000160: 83b5 d9bc 5a41 a5bb f77f 783c 0fcd f7bc
00000170: 8d02 373c 7531 3b3c 203b 00bd 2dd0 293c
00000180: e57d a33c 760a 81bc ec79 273c bff6 d03c
00000190: d61e 14bd 4446 36bc f82d bf3c 1ec2 c6bc
000001a0: 817a e03b 51b3 2b3d 209b c1bb f911 afbc
000001b0: 2f95 5d3c 7ac2 283c 5a22 27bb 631a 923c
000001c0: c370 0f3c ae72 cb3b 73c0 d0bb 0a47 f83a
000001d0: 70c8 19bc c0d4 ecbc 988a 02bd 4693 36bc
000001e0: 4044 333c bb7d 7dbb 0d36 50ba a816 b5bc
000001f0: 53ea f0bc 0b52 f73c 68b0 bc3c 3c51 c0bb
0.015433375 0.01358851 -0.00297445 0.016835086 -0.009720759 -0.012562214 0.010269007 -0.0020200138
0.008633831 -0.005937707 -0.032716874 0.0243166 0.02902056 0.0054183975 -0.005132516 7.237485e-05
-0.018795528 0.022532845 0.0147272935 0.010677741 -0.023268081 -0.02270265 -0.025973054 -0.03759232
0.014976885 0.011856905 0.011512384 -0.0036247845 -0.029527 -0.013971812 -0.017341822 0.0064017824
0.034317303 -0.0133666545 0.009385982 0.026242055 0.021730589 -0.0073820245 0.0155960135 -0.016967615
-0.016526729 -0.024897296 0.04045474 0.01871926 -0.009587269 0.028150866 0.0070593944 0.025159547
0.0033047001 0.0058154287 0.02945037 0.023136502 0.022993922 0.018628532 0.015117795 0.0296143
0.02546998 0.017263087 -0.022584205 0.019188775 0.0018312399 -0.025912011 0.007601732 -0.0315371
-0.002131002 -0.0071804835 0.026267273 0.02440838 0.0112931095 -0.00048005988 -0.013127545 -0.010667636
-0.01858773 0.012601898 -0.03418093 0.022406476 -0.017140752 0.030260041 -0.0070133484 0.008117971
0.01019185 -0.025470912 -0.01122012 0.030268421 0.01842261 -0.018130684 0.011909491 -0.00831953
-0.02657581 -0.005043191 0.015167228 -0.030249147 0.011170042 0.011425366 -0.031306386 0.010364574
0.019957492 -0.015752058 0.0102219395 0.025508283 -0.03616222 -0.011125151 0.02333735 -0.024262484
0.006850541 0.041919056 -0.005908385 -0.021370875 0.013524338 0.010300273 -0.0025502653 0.017834848
0.008754912 0.0062087392 -0.006370598 0.001894207 -0.009386167 -0.02891004 -0.031870455 -0.011143511
0.010941565 -0.0038679678 -0.00079426245 -0.02210553 -0.02940861 0.030190488 0.023033336 -0.005869059

model.3.weight f4 [128]
00000000: d391 813f 789e 813f f70b 803f 682b 8c3f
00000010: bafd 823f 85e4 8f3f 42c8 833f 667c 903f
00000020: b4ca 8e3f ac72 803f 7bc4 813f b2b4 813f
00000030: c6e5 813f e64f 813f 599d 863f a8e0 863f
00000040: 6068 823f 9fbd 923f 16b9 803f b380 8e3f
00000050: 1bb0 803f 4a4d 8e3f a339 833f 1c23 913f
00000060: 0464 8c3f 0057 853f 0c3d 8e3f 387d 973f
00000070: 7162 8d3f 31b7 813f 8054 8e3f 8aac 7f3f
00000080: 68f5 8f3f a3b0 833f b345 823f 71ac 813f
00000090: 9c18 823f 160c 843f 9f1d 923f c52d 8a3f
000000a0: b169 8e3f db00 8c3f c572 883f 1be9 813f
000000b0: e3db 913f f84f 823f 1253 913f 6fac 823f
000000c0: dd1b 823f 500d 823f 6621 803f 4062 933f
000000d0: 3b25 843f 7731 833f 24b4 8f3f 211f 893f
000000e0: 0cce 803f 72f3 8d3f ad07 853f 9cee 8f3f
000000f0: 866d 833f e318 813f 5b2a 833f 41cd 833f
00000100: 3718 933f 36e6 803f 7cea 803f bb73 823f
00000110: c9a0 8b3f 2f2d 843f 3f19 843f feb2 823f
00000120: 06da 7f3f 520b 823f 12c8 813f 89d6 803f
00000130: 3ed2 923f ec8d 8d3f 8674 8c3f c3ca 853f
00000140: 6fa5 8a3f 7b72 913f 805e 8e3f ee56 813f
00000150: e795 813f 4757 813f b085 903f a3aa 833f
00000160: 4ff3 8f3f 87de 803f 0f27 893f 678d 823f
00000170: 17ca 813f bc79 813f 5876 813f debe 813f
00000180: e176 813f 5355 8f3f 331e 923f f596 823f
00000190: 8305 813f 1da6 803f ee22 853f b79e 893f
000001a0: 7920 8c3f 96cb 8d3f b8dd 863f 80f8 803f
000001b0: 7931 823f af13 823f 345c 903f 6e29 873f
000001c0: 9321 833f 3d65 823f 2796 813f be6c 823f
000001d0: 2b6f 8e3f 7700 833f dcfd 803f 1e15 843f
000001e0: 7594 823f 77b8 823f ec29 933f 73ae 923f
000001f0: a503 833f 0b0a 813f d4d6 873f 3d68 833f
1.0122627 1.0126486 1.0003651 1.0950747 1.0233681 1.1241614 1.0295489 1.1287963
1.115561 1.0034995 1.0138086 1.0133269 1.0148246 1.0102508 1.0516769 1.053731
1.0188103 1.1464118 1.0056484 1.1133026 1.0053743 1.1117337 1.0251964 1.133884
1.0968022 1.0417175 1.111238 1.1835089 1.1045667 1.013403 1.1119537 0.9987265
1.1246767 1.028828 1.017752 1.013075 1.016376 1.0316188 1.141529 1.0795218
1.1126004 1.0937761 1.0660025 1.0149263 1.1395229 1.0180655 1.1353476 1.0208873
1.0164753 1.0160313 1.0010192 1.1514359 1.0323862 1.024947 1.122685 1.0712625
1.006288 1.1089919 1.0392967 1.1244693 1.0267799 1.008572 1.0247301 1.0297014
1.1491765 1.0070255 1.0071559 1.0191568 1.0908443 1.0326289 1.0320204 1.0210874
0.9994205 1.0159705 1.0139182 1.0065471 1.1470411 1.1058936 1.097306 1.0452503
1.0831736 1.1363062 1.1122589 1.0104654 1.0123872 1.010476 1.1290798 1.0286449
1.1246127 1.006791 1.0715045 1.0199403 1.0139798 1.0115275 1.0114241 1.0136373
1.0114404 1.1197914 1.1415466 1.0202318 1.0079807 1.0050694 1.0401285 1.0751561
1.094741 1.1077754 1.0536413 1.0075836 1.0171348 1.0162257 1.1278138 1.0559518
1.0244621 1.0187145 1.0123948 1.0189435 1.1127676 1.0234517 1.0077472 1.0318944
1.0201555 1.0212544 1.1497169 1.1459488 1.0235487 1.008119 1.0612435 1.0266186

model.3.bias f4 [128]
00000000: 11cf 02bc 72a7 38bc 29dc 1bbc 64d6 5c39
00000010: 9147 74bc 3051 0a3d 1b92 103c ef3d 1e3d
00000020: f07a 7f3b 4fde 943b 8f99 3abc 2313 cbbc
00000030: ea81 403c ef41 663c 700b a239 9f85 18bb
00000040: dee0 aa3c 84e2 f33c 9c41 d03c 10d2 ab3b
00000050: 2302 9e3b 5646 8f3c 5796 abbc 5bfd e83c
00000060: 0834 6c3d 9ca7 7abc 1356 623d 0816 083d
00000070: 81f0 903c 5536 0ebc c7db b13c b01e 60bc
00000080: eca2 053d 9a6c 103d 8763 bb3c 372f 1a3c
00000090: 7225 153c 05d8 71bb 9ffb 843c d58a 2e3d
000000a0: ea70 b53b 3ac8 97bb b86f 88bc 027d f4bc
000000b0: 502b 453c 28dd 453c 745a 113c 74a7 67bb
000000c0: b4a8 eb3c 41ae 3dbb cb02 253c 347c 203d
000000d0: d5d7 893c d8fc 81bc c31b c93c f9ba 383c
000000e0: d727 8e3c 34c3 043d 0062 abbb a0ec 323d
000000f0: 9a66 6e3c d90b 533b b765 953c 5804 f3ba
00000100: b221 4a3c 5f77 2a3c cbc8 d43a 21c7 4d39
00000110: 1b37 95bb 58ff c1bc 5b41 f13b 167c afbb
00000120: 1613 bbbc 3b05 303c bbbf 8fbc ab1f 303c
00000130: feb7 953c a4ab 103d 42c6 e73c 4142 efb9
00000140: 4049 903c 7cf4 273d 179b 0e3d ef4f 86bb
00000150: 1f10 123c 7a31 e23b 3d49 123d 8264 dcbb
00000160: 1a48 4d3d 83b2 963b 0012 b53c 1b6d 61bc
00000170: 614f f63b 8d92 633c 6f6d acbc d2ae ec3b
00000180: 9548 73bb 9d4c 9e3c 87af e83c 4355 933b
00000190: d9dc d53a 1ef2 16bc 6828 5a3c 00ed a0bb
000001a0: a048 3d3d b0d3 e03c c7f2 01bd e3fd 84bc
000001b0: 4852 bcbc 7aa8 c6bc d2be 563c 90e7 afbb
000001c0: d4c0 8abc 61f3 983c 6e1a 363c 9d0a 463c
000001d0: 71b4 ee3c d682 e73c e32b 22bb 42f3 403b
000001e0: f5f0 f53b 1dbf 52bc cfa9 d03b 3356 393d
000001f0: eb3f 5d3c 83e1 8abc 9b6f a3bc d579 aabb
-0.007983939 -0.011270391 -0.0095129395 0.00021060702 -0.014909641 0.033768833 0.008823897 0.038633283
0.0038983189 0.004543103 -0.01138915 -0.024789399 0.011749724 0.014053806 0.0003090757 -0.0023273004
0.020859178 0.029771097 0.02542191 0.0052435473 0.004822032 0.017489593 -0.020945711 0.028441122
0.05766681 -0.01529875 0.055257868 0.033224136 0.017692806 -0.008679946 0.021711243 -0.0136791915
0.032626078 0.03525982 0.022874607 0.009410671 0.009103166 -0.003690244 0.016233264 0.04261287
0.005537142 -0.004632023 -0.016654834 -0.029844765 0.012034252 0.012076654 0.008871663 -0.0035347613
0.028766967 -0.0028942975 0.010071467 0.03918095 0.01682655 -0.015867636 0.02454937 0.0112750465
0.017352981 0.032412723 -0.0052301884 0.043682694 0.014550829 0.0032203107 0.018236978 -0.0018540723
0.012337135 0.010404437 0.0016234157 0.00019624505 -0.004553688 -0.023681328 0.0073625273 -0.0053553684
-0.02283625 0.010743435 -0.017547479 0.010749738 0.01827621 0.03531994 0.028292779 -0.00045634995
0.017613053 0.041004643 0.034815874 -0.0040988843 0.008914976 0.0069028707 0.035714377 -0.0067258487
0.05011759 0.004598917 0.02210331 -0.013758923 0.007516787 0.013889921 -0.021048276 0.0072229886
-0.003712212 0.019323641 0.02840401 0.004496248 0.0016316428 -0.009212999 0.013315298 -0.004911065
0.04621184 0.02744469 -0.03172567 -0.016234344 -0.022988454 -0.024250258 0.013107019 -0.0053681806
-0.01693765 0.01867074 0.0111147 0.012087491 0.029138776 0.02826063 -0.0024745397 0.0029441868
0.007505531 -0.012862948 0.006367899 0.04524822 0.013504009 -0.016953235 -0.019950679 -0.005202512

model.3.running_mean f4 [128]
00000000: a721 923d 0bee 02be c4ce 8c3e 7492 42bd
00000010: cdf8 c0bd 30bd dfbd adaa 8abc 2e8e 0fbe
00000020: 211a d73b 33a7 34be 75ef c3bd 3c9a 03bd
00000030: b8b5 233c 9327 bf3c e72f 5cbd 5e5c 85bd
00000040: aa66 d3bd 5aff e0bc 0176 153e c451 51bc
00000050: d6fb ad3e cec7 e3bd 2fe4 83bd 33c4 c7bd
00000060: 1f20 fcbd 7399 a0bd e25e 15be 39e3 42bd
00000070: a4e7 f7bd fc2c 56be 0cc3 b8bd 523e ca3d
00000080: 6c78 2cbd ee68 e4bd 0e46 08be d32b 3b3d
00000090: 21f5 1cbe dc2f 32bd f01a 863a 6e52 02be
000000a0: 94bf 14bd ccf9 45bd 444a bbba 16f6 8db9
000000b0: a8a4 80bd 072c 0dbc 5699 92bd 4033 2dbe
000000c0: 719e 5abe ca0c f6bc eeb4 923e 1dbb 4abd
000000d0: 38f5 003d 4743 18bd e5c1 d1bd 3dd0 a1bd
000000e0: 2377 00be ba13 1cbd 9141 12be 8661 26bd
000000f0: 0ec0 bcbd 4fdb 6bbd abc4 5cbd c893 51bc
00000100: 7874 7bbd db0a fbbc b73a 54bd 3478 13be
00000110: bcda 8cbc b88c 0bbe 51ff cbbd c346 86bd
00000120: 6599 013c 9c46 2dba 0e9c dabd 679f 39be
00000130: d031 04bd 5e7c cbbd f54c 7bbd 1c53 48bc
00000140: d2cd 8fbd 872d c0bd 749a abbd cd87 69bd
00000150: 2057 943d 9cc6 dc3c 300d 243c a6ae aebc
00000160: 26c5 d8bd caff 62bd d06d 72bd 3e75 f3bd
00000170: faa9 78bd 6f56 ddbc 372d d6bd 4b13 1bbe
00000180: ac4e f1bd 7cd8 bfbc 24fd 293d 6f08 c33b
00000190: 0575 67bd 1fcf 4e3e 0465 913b 1485 b8bd
000001a0: 8ae0 9cbd c6d7 21bc 6631 203e b459 463e
000001b0: e9e2 92bd d11b 09be 52f9 17bd 6861 bfbc
000001c0: 395c 8cbd 2c0c eebb 525c aebb 8b68 03bc
000001d0: f8f7 cebd c6a3 06be a79e 22bd 3299 16be
000001e0: 0bb0 873c d3e4 7bbe c48c 42bc 3043 3dbd
000001f0: 88a0 00be 79d3 8b3c b6b4 973d 439f bebd
0.07135325 -0.12786119 0.275015 -0.04750295 -0.09422455 -0.109247565 -0.016927088 -0.14019081
0.006564394 -0.17641906 -0.09567157 -0.03212951 0.009992056 0.0233343 -0.05375662 -0.06511758
-0.10322316 -0.027465511 0.14595796 -0.012775842 0.33981198 -0.11122094 -0.06440007 -0.09754219
-0.12310814 -0.07841768 -0.14586976 -0.047579978 -0.12104729 -0.20915598 -0.09021577 0.09875168
-0.04210703 -0.11152826 -0.13307974 0.04569609 -0.15327884 -0.043502674 0.0010231417 -0.12726757
-0.036315516 -0.048333928 -0.0014289101 -0.00027076964 -0.06281406 -0.008616454 -0.07158153 -0.16914082
-0.21349503 -0.030035395 0.28653663 -0.04949485 0.03148386 -0.037173536 -0.102420606 -0.079010464
-0.12545447 -0.03810475 -0.14282824 -0.04062035 -0.09216319 -0.057582196 -0.053898495 -0.012791581
-0.06139037 -0.030644825 -0.051813807 -0.14401323 -0.017194144 -0.13627899 -0.09960807 -0.065564655
0.007910107 -0.0006609948 -0.10674296 -0.18127213 -0.032274067 -0.099358305 -0.06135269 -0.012226846
-0.07021679 -0.09383684 -0.08379069 -0.057014275 0.0724318 0.026950173 0.01001291 -0.021323513
-0.10584478 -0.05541972 -0.059186757 -0.118875965 -0.060708977 -0.027018754 -0.10457843 -0.15144078
-0.117825836 -0.023418657 0.04150118 0.005951933 -0.056508083 0.20196198 0.004437091 -0.09009758
-0.07660015 -0.009878105 0.15643844 0.19370157 -0.07172186 -0.13389517 -0.037103005 -0.023361877
-0.068535276 -0.0072646346 -0.005321064 -0.00802053 -0.1010589 -0.13148412 -0.039702084 -0.14706877
0.016563436 -0.24599008 -0.011874381 -0.046206653 -0.12561238 0.017068611 0.07407515 -0.093077205

model.3.running_var f4 [128]
00000000: 0fa3 873a b436 683a 242c 883a 4d1e 9b3a
00000010: 9e6b 303a 8253 e83a 3914 bd3a 3195 b83a
00000020: 09bd ba3a b0b2 853a 828c 553a 7c44 a73a
00000030: b0ff d239 6105 bb3a db40 db3a 0cf8 3c3a
00000040: e44d a23a 16c2 e23a 151a 1a3a 535a f13a
00000050: 04fe be3a d386 183b 5ef5 833a 1657 1d3b
00000060: 67b9 0f3b cfe5 703a 4dfe cc3a 7f08 603b
00000070: a5c6 063b bbf9 b93a 3668 7e3a 75b7 e639
00000080: 3242 da3a 0d26 2a3a 5742 c03a bba7 173a
00000090: 01ee 383a 9ec3 233a b998 203b fc6c a13a
000000a0: 0948 3c3b 1f4a a83a bba8 8a3a e8f6 423a
000000b0: 5e30 583b 7e4a 983a b282 0f3b 3651 6f3a
000000c0: 471b 4a3a 6844 883a 569c a63a daf1 993a
000000d0: f2fe a33a e57f 633a ab23 013b 98f0 ad3a
000000e0: 81a6 c239 6fca 323b 0de4 333a 03c0 0a3b
000000f0: 177f 113a ea63 893a 02c2 673a 3e2c a439
00000100: 34a5 513b e46f 313a f8d9 883a 33e5 b43a
00000110: cd56 d43a 3dba 713a 3229 653a ca0a 7e3a
00000120: 46f7 303a 02cc ca39 e2a4 333a 88e8 483a
00000130: d25a 9b3b 3f5c 003b c068 443b d6fb 9f3a
00000140: 0c53 2e3b 4797 ed3a 2c3c db3a 9d55 bb3a
00000150: 1777 903a 1200 073a 92a2 823a 84ca 3e3a
00000160: 1d15 193a e915 b13a 55d4 083b efc4 ac3a
00000170: dd5e e23a 3162 0a3a 1f75 703a c55b b639
00000180: bb0d bd39 75b3 8d3a 3ae4 403b 73ba a33a
00000190: 5479 133a 5f38 a83a c0f5 f33a 0173 9b3a
000001a0: d586 713a eeaf d13a a603 9b3a 52d0 933a
000001b0: f70b 7e3a 0734 703a 9281 ad3a 2026 973a
000001c0: a1ff 623a 6475 c43a 3007 133b 787d 293a
000001d0: 88b8 773a ff96 423a 3fef ef3a 7d4b 2b3a
000001e0: ba4e 643a 22a9 9a3a 06b4 263b 2bf9 aa3a
000001f0: d6ee ab3a 383b 2d3a 6ea2 283a 1e82 1a3a
0.0010348278 0.0008858249 0.0010389131 0.0011834592 0.00067299034 0.0017725083 0.0014425582 0.0014082548
0.0014247011 0.0010200348 0.00081462425 0.0012761499 0.00040244823 0.0014268571 0.0016727702 0.0007208593
0.0012382832 0.0017300274 0.00058785203 0.001841376 0.0014571552 0.002327372 0.0010067632 0.0024008206
0.0021930577 0.00091895176 0.0015639752 0.0034184752 0.0020565179 0.0014188805 0.00097048597 0.00044005705
0.0016651808 0.00064906554 0.0014668208 0.00057851867 0.00070545083 0.0006247106 0.0024505092 0.0012315805
0.002872946 0.0012839473 0.001057885 0.00074373046 0.0032987813 0.001161888 0.002189797 0.0009129228
0.0007709753 0.0010396363 0.0012711387 0.0011745051 0.0012511893 0.00086784206 0.0019705098 0.0013270555
0.0003712662 0.0027281304 0.00068622903 0.0021171577 0.0005550249 0.0010482047 0.000884086 0.0003131348
0.0031989338 0.0006768687 0.0010440936 0.0013801217 0.0016200185 0.0009221172 0.00087417953 0.0009690939
0.0006750714 0.0003868044 0.00068528776 0.00076640444 0.0047410512 0.0019586233 0.0029969662 0.001220579
0.0026599793 0.0018126749 0.0016726307 0.0014292483 0.001102182 0.0005149852 0.0009966663 0.0007278102
0.0005839633 0.0013510558 0.0020878513 0.0013181249 0.0017270703 0.0005278914 0.0009172726 0.0003478212
0.0003605912 0.0010810929 0.0029432909 0.0012491479 0.0005625684 0.0012834183 0.0018612668 0.0011859835
0.0009213512 0.0015997866 0.0011826649 0.0011277294 0.0009691114 0.0009163026 0.0013237468 0.0011531748
0.00086593075 0.0014988598 0.0022434704 0.00064655347 0.00094497995 0.0007423013 0.0018305554 0.0006534381
0.0008709241 0.0011799673 0.0025436892 0.0013044229 0.0013117443 0.00066082506 0.00064328953 0.0005894023

model.5.weight f4 [1, 128, 4, 4]
00000000: 0cbc d53c 81f6 1f3c ff14 d13c 3809 063c
00000010: 0f6c 533c 46ff 5e3b d864 bc3c 9048 b83b
00000020: 0759 34bb 0c8e cc3c 0941 0a3d 6eac a63c
00000030: 8b3e 47bc 5334 053d dc3c 053d ba7a 2f3c
00000040: 51eb e93c 853d 6b3c f2fb 4dbc 882d 043d
00000050: e781 e53b ea2f 273b 6395 163c c3bb 923c
00000060: f4c4 a33c abf7 2cbb b1c1 833a 9090 e23c
00000070: 578f f739 89b0 cc3c 4440 a63c 3de2 aa3b
00000080: c7d8 39bc 2cbb fb39 2918 853b acb2 42bc
00000090: a73e b2bc 8a40 4a3c 00ec 69bc d20c 70bc
000000a0: 4c4a c13b fdd5 683c efc5 943b a869 06bc
000000b0: 99fe ccba 7b31 b2bc 1c74 14bc 0ac9 c73b
000000c0: 9cc7 f3bc 28fd 7abd 829e abbd 8e64 89bd
000000d0: 27ed 0abd 4103 8bbd 1588 8ebd 8ec0 68bd
000000e0: 8e7d 71bc f279 84bd 73e0 7ebd 1e36 a1bd
000000f0: 2f40 ee3c 9aea cfbc 07c8 993a 2b8a 70bc
00000100: c842 f73c 90dc ebbb e499 33bc afd3 213c
00000110: 5966 60bb 1fdc 8b3b 4d01 e5bc e4ac 8dbc
00000120: 3a88 b53c e139 f8bc 1d0e 49ba 372a 0bbd
00000130: e1b1 a9bb 68b4 edbc 004d e33a 7721 cebc
00000140: c75e 0a3d 3449 353c 1228 393c 32bf 98bc
00000150: d0a0 5dbd 7cca afbd dfb5 58bd 9894 5abd
00000160: de91 77bd 6f75 a5bd 9f11 8abd 6640 c0bd
00000170: e517 51bd 0dfd 9dbd 37eb cbbd adc3 bebd
00000180: c17f 193d 60c3 c23c f764 2a3c 070b 843c
00000190: a676 8d3c 1531 5c3c 681b 563c 079b 963c
000001a0: 00c7 e63c 74e0 173b 793f a73c aee0 423c
000001b0: 6054 3ebc b866 cc3b 764e 493c c882 2abc
000001c0: 89f2 babd bd85 8abd 8754 55bd ffb2 34bc
000001d0: 13de a8bd 8285 4cbd 9980 92bd 7076 12bd
000001e0: ef02 b1bd 48ec c0bd f677 58bd d90b e1bc
000001f0: 7283 66bd 7c4e 97bc 533f 25bd 1b9a 163d
00000200: 50be acbd 312c b5bd 6216 a5bd 6028 b8bc
00000210: eaff 90bd 0ead a3bd b693 b2bd 8bb5 40bc
00000220: c6dd 74bd bf76 afbd 69ac 81bd 33ce c9bc
00000230: a9db 0dbd e3ee ebbc de1d edbc c40f 203c
00000240: 5621 60bb 27f1 913c daf9 c23c 2a6b 9e3c
00000250: f56e 3e3c 6741 35bc 8a07 2b3b 4461 b03c
00000260: 5083 b23c 24bf 3c3b 07c6 f4bb bb75 a7bb
00000270: 54bf 66bc 65ab 4a3c cd17 7abc 3a8b 883c
00000280: 217e dc3b d73c 873c d7a0 2b3c 20a7 183c
00000290: 3305 063c 9731 023d aebe 163d ad34 f83c
000002a0: fb7e 903c 2f89 fb3c 3dbf 8c3c e059 40bb
000002b0: 90e7 67bb 75ce b63a 5685 2f3c 2da5 aa3c
000002c0: fb6d a23c 5f5f e43c 5cf0 f3bb fe83 dd3b
000002d0: 0f62 df3c f596 e53b 6cc3 b1bb da6a 133d
000002e0: aa01 9c3c ae02 b33b b7b4 9e3c d68c af3c
000002f0: 6e16 de3c e1ab 863b 68f5 3fbc c269 d63c
00000300: ba08 76bc 0377 ac3a 4bd3 d73c f1d5 8f3c
00000310: f3c9 f7bb e220 bc3c 34f0 a23c 9c6b 8b3b
00000320: 5da1 023d dfa5 913c c1e6 c53c 2bfb 923c
00000330: d227 c73c 2d61 d0bb 9f31 1a3d 1f73 e53c
00000340: 7dd7 0bbb d1c3 8e3c d040 5eba 34de b23a
00000350: ced5 ac3c 9019 933a 8df9 ecbb 2fc7 d1bb
00000360: ac6d 9f3c 1a1d b13c 3f72 9c3c e7e8 a33c
00000370: 7718 44bc 1024 a33c 4495 943c 0556 4c3c
00000380: 5795 41bd 7196 a6bc da47 7ebc bb85 963c
00000390: 6b2f b7bc 257d b9bc 38e2 c6bc a763 c83b
000003a0: 9b11 0abd 688a 4fbc 67c4 35bd 8d92 ac3b
000003b0: 4294 65bd 2351 a2bc f087 ecbc 1861 8bbb
000003c0: 1238 02bd 5391 a9bc 7060 d4bb 4487 443b
000003d0: 52eb 76bd ce5e 70bd dfd7 47bd cf3d babc
000003e0: 224e 8abd 0865 14bd f562 83bd b078 2fbd
000003f0: 6d5d 3cbd dab6 81bd 655f 6bbd f324 34bd
0.026090644 0.009763361 0.025522707 0.008180909 0.012904181 0.0034026667 0.022997305 0.0056238845
-0.0027518885 0.024970077 0.03375343 0.020345893 -0.0121609075 0.032520603 0.032528743 0.010710413
0.02855459 0.014357929 -0.0125722755 0.032269984 0.007004011 0.0025510737 0.00919089 0.017911797
0.019991376 -0.0026392739 0.0010052231 0.027656823 0.00047218308 0.024986522 0.020294316 0.005214958
-0.011343188 0.00048013905 0.004061718 -0.011883419 -0.02175839 0.012344489 -0.014277458 -0.014651494
0.0058987495 0.014211175 0.004540197 -0.008203901 -0.0015639841 -0.02175211 -0.009060886 0.006096964
-0.029758267 -0.061276585 -0.08379842 -0.067086324 -0.033917572 -0.0678773 -0.06959549 -0.05682426
-0.014739407 -0.06468572 -0.06222577 -0.0787165 0.02908334 -0.025380421 0.0011732586 -0.014681379
0.030183211 -0.007197924 -0.010961983 0.009877129 -0.0034240691 0.004268184 -0.027954722 -0.017294355
0.022159684 -0.030301036 -0.00076696445 -0.033975806 -0.0051786755 -0.029016688 0.0017341673 -0.025162442
0.033781793 0.011064816 0.011301057 -0.018645857 -0.05410844 -0.08583543 -0.05290782 -0.053364366
-0.060441844 -0.08079039 -0.06741642 -0.09387283 -0.05104818 -0.07714281 -0.09956973 -0.09314666
0.03747535 0.023774803 0.010400048 0.01611854 0.01726849 0.013439436 0.013068058 0.01838447
0.028171062 0.0023174556 0.020416008 0.011894388 -0.011616796 0.006237831 0.012286773 -0.010407157
-0.09128291 -0.0676379 -0.052082565 -0.011029004 -0.08245482 -0.04993201 -0.07153434 -0.035757482
-0.08643138 -0.09420067 -0.05284878 -0.02747147 -0.0562777 -0.018470041 -0.040343594 0.03676806
-0.08434737 -0.088463195 -0.0806091 -0.02248019 -0.07080062 -0.07991992 -0.0871958 -0.011762033
-0.059781812 -0.08567571 -0.06331713 -0.024634456 -0.034633312 -0.028800434 -0.028944906 0.009769384
-0.0034199557 0.017815186 0.02380078 0.01933821 0.011623134 -0.011062956 0.0026097023 0.021530755
0.02179113 0.0028800452 -0.0074698958 -0.00511047 -0.014083702 0.012369965 -0.015264464 0.01666795
0.006728903 0.016508503 0.010475359 0.009317189 0.0081799505 0.031785574 0.03680294 0.030298555
0.017638674 0.030705063 0.017181033 -0.0029350445 -0.0035385825 0.0013947027 0.010712942 0.020830715
0.019827833 0.027877508 -0.0074444246 0.0067601195 0.027268438 0.007006521 -0.0054249074 0.035990573
0.019043762 0.005462966 0.01937328 0.02142946 0.027110305 0.004109845 -0.011716224 0.026173476
-0.015016729 0.0013158027 0.02634587 0.01755807 -0.007561916 0.022964898 0.019889928 0.0042547714
0.03189217 0.017779289 0.024157884 0.017942032 0.02431098 -0.0063592405 0.03764498 0.028008996
-0.0021338158 0.017427357 -0.0008478286 0.0013646544 0.021098044 0.0011222828 -0.007231897 -0.0064019184
0.019461475 0.021620322 0.019097446 0.020008517 -0.0119687235 0.019914657 0.018137582 0.0124716805
-0.047261562 -0.020335408 -0.01552006 0.018374315 -0.022361478 -0.022642681 -0.024277791 0.006115395
-0.033708196 -0.012667276 -0.044376757 0.0052664937 -0.056049593 -0.01981408 -0.028873414 -0.004253518
-0.031791754 -0.020699179 -0.006481223 0.002998785 -0.060283013 -0.058684163 -0.048789855 -0.02273455
-0.06753184 -0.036229163 -0.06415359 -0.042839706 -0.045987535 -0.06333704 -0.057464022 -0.04398055
