Project/saved_models/discriminator.pth (torch, 551759 bytes, 9 tensors)

model.0.weight f4 [64, 3, 4, 4]
0	0xbc5f0988	-0.013613112
1	0x3d90a216	0.070621654
2	0xbd58e554	-0.05295308
3	0xbdfa1e8f	-0.1221286
4	0x3d319295	0.043352682
5	0x3d54f558	0.05199179
6	0x3de14e97	0.11001318
7	0x3d515fec	0.05111687
8	0x3df3ddf0	0.119075656
9	0xbdf7351d	-0.120706774
10	0x3da6136e	0.08109175
11	0x3dbd9292	0.09256472
12	0x3be21b7f	0.0069002504
13	0x3d77e5ac	0.060521767
14	0xbe132f0f	-0.1437342
15	0x3d8c3fe9	0.068481274
16	0x3e07d471	0.13264634
17	0x3ddc9fd9	0.10772676
18	0x3d732648	0.05936268
19	0xbde58b7f	-0.112082474
20	0xbe0b8932	-0.13626555
21	0x3d846f2f	0.06466519
22	0x3aea3c21	0.0017870703
23	0x3e002bb8	0.12516677
24	0xbdaca1b2	-0.084292784
25	0x3dbbc560	0.09168506
26	0xbe093e8f	-0.1340277
27	0xbde46ea4	-0.111539155
28	0xbd258e04	-0.04041864
29	0x3d92d094	0.07168689
30	0xbdc20bfe	-0.094749436
31	0xbd75087d	-0.05982255
32	0xbe0ec225	-0.13941248
33	0xbda82905	-0.08210949
34	0xbdbe8d36	-0.093042776
35	0x3dcc2f45	0.099699534
36	0x3dc19b80	0.094534874
37	0xbd013516	-0.031544767
38	0x3e03beb8	0.12865722
39	0xbe045914	-0.12924606
40	0xbd884cfc	-0.066553086
41	0x3b0f56ed	0.002187188
42	0x3d3b01aa	0.045655884
43	0xbd882864	-0.06648329
44	0x3df04811	0.117324956
45	0x3db03ab2	0.08604945
46	0xbba8c9cb	-0.0051510087
47	0xbdfab420	-0.12241387
48	0x3c27e61d	0.010247734
49	0xbacfa3c5	-0.0015841654
50	0xbd963cab	-0.0733579
51	0xbdee09c1	-0.11622954
52	0xbde30b2c	-0.11086115
53	0xbdd97c5a	-0.10619421
54	0x3dc56a80	0.09639454
55	0xbdcd16b2	-0.100140944
56	0x3c8b6ee2	0.017020646
57	0xbd86b063	-0.06576612
58	0xbe0721a0	-0.1319642
59	0x3df101a0	0.11767888
60	0x3cd145f8	0.025546059
61	0x3dde734c	0.10861835
62	0x3dd88b52	0.10573448
63	0x3d3ad32f	0.045611557
64	0x3d87fb2f	0.06639706
65	0xbd8c4074	-0.06848231
66	0x3db2a3ee	0.08722673
67	0x3cc14a97	0.023595138
68	0x3e0ebc62	0.1393905
69	0x3bcf6be8	0.006330002
70	0xbda24315	-0.07922951
71	0x3da1b600	0.07896042
72	0x3d5b31b5	0.0535142
73	0x3d6d3da6	0.05792012
74	0xbdf4fbb6	-0.119620726
75	0x3db290c7	0.0871902
76	0xbd1ee0cd	-0.038788605
77	0x3da281e8	0.07934934
78	0xbdc90855	-0.09816042
79	0x3d0ef8c2	0.034905203
80	0x3cb6d595	0.02231864
81	0xbdcfc76a	-0.10145457
82	0xbe02a924	-0.12759835
83	0x3da8de81	0.08245564
84	0xbdec139a	-0.11527176
85	0xbd649e97	-0.055815306
86	0x3d8e22fb	0.06940266
87	0x3d09d229	0.03364769
88	0x3d2c47d7	0.0420607
89	0x3dc0db24	0.09416798
90	0xbdaa8376	-0.083258554
91	0xbcec385d	-0.02883547
92	0xbda58c62	-0.080834165
93	0x3e0350f7	0.12823854
94	0x3db412ff	0.08792686
95	0xbdcdd398	-0.10050124
96	0x3e068630	0.13137126
97	0xbdf9a1e3	-0.121890806
98	0xbe020c87	-0.12700091
99	0xbdd7f0cb	-0.105439745
100	0x3dde5a6f	0.108570926
101	0xbdef81e8	-0.116946995
102	0xbd39c4a9	-0.045353565
103	0xba4c4ab0	-0.0007793112
104	0xbcf205c5	-0.029543767
105	0x3d6d093a	0.057870127
106	0xbc06536d	-0.008198601
107	0x3d177671	0.03697819
108	0x3d63b05a	0.055588104
109	0xbcbc7952	-0.023007069
110	0xbc8b5193	-0.017006671
111	0x3d9e4da7	0.07729655
112	0xbce1f24f	-0.027581362
113	0x3e236a8c	0.15958613
114	0x3c4bb3c0	0.012432992
115	0xbba31f9d	-0.004978134
116	0xbd5b2889	-0.053505454
117	0xbddfa87a	-0.10920806
118	0x3c9c3cb0	0.019071907
119	0x3d174d2b	0.036938827
120	0xbd41e737	-0.047339644
121	0x3d989892	0.074509755
122	0xbd558694	-0.052130297
123	0xbde60b40	-0.112326145
124	0x3ddc56d2	0.10758747
125	0xbbe9e7b9	-0.007138219
126	0x3df5f2b5	0.12009183
127	0xb6f74780	-7.3694973e-06
128	0xbe10872e	-0.14114067
129	0xbdc3e83f	-0.09565782
130	0xbdecf17f	-0.11569499
131	0x3de8ae94	0.11361423
132	0x3dd05aa7	0.101735406
133	0xbe04c24f	-0.12964748
134	0xbc73d1e9	-0.014881589
135	0x3e00cfae	0.12579224
136	0x3d98ad39	0.074549146
137	0x3df3d462	0.11905743
138	0x3b0a4318	0.002109712
139	0xbda9131f	-0.082556
140	0x3d502367	0.050815012
141	0xbdd02108	-0.1016255
142	0xbcba15d7	-0.022715492
143	0xbd3d2ce5	-0.046185393
144	0xbde69c69	-0.112603016
145	0xbddce1f0	-0.10785282
146	0xbda5afdb	-0.080901824
147	0x3cb6507a	0.022255171
148	0xbdf1a577	-0.11799138
149	0xbdbb9b98	-0.091605365
150	0x3d867889	0.06565959
151	0xbd4d2827	-0.05008712
152	0x3da2301e	0.07919334
153	0x3db35ee5	0.08758334
154	0x3dcb21e5	0.09918574
155	0xbdabc21c	-0.08386633
156	0x3d528b63	0.05140246
157	0xbda8ac30	-0.08235967
158	0x3d6af026	0.05735793
159	0x3c89475e	0.016757663
160	0x3dc60867	0.09669571
161	0xb9a29a54	-0.0003101403
162	0x3dd22a1e	0.102619395
163	0x3e072510	0.13197732
164	0x3ba95428	0.005167503
165	0xbdcc3141	-0.09970332
166	0xbdf83332	-0.1211914
167	0x3db9949e	0.090615496
168	0x39af5704	0.00033443433
169	0x3db78430	0.0896076
170	0xbdec02bb	-0.11523958
171	0x3da65270	0.081211925
172	0x3ce7a1f0	0.02827546
173	0x3dd9babf	0.10631322
174	0xbde1c08e	-0.11023055
175	0xbd84042b	-0.064461075
176	0x3d0edfdd	0.03488146
177	0x3db1965e	0.086712584
178	0xbdb71808	-0.089401305
179	0xbd8594d7	-0.065225296
180	0x3deb02e8	0.11475164
181	0x3db9959d	0.090617396
182	0xbd79ce26	-0.060987614
183	0x3d9cb0bd	0.07650898
184	0xbde4750f	-0.1115514
185	0xbdb8b72a	-0.09019311
186	0xbd29112c	-0.041276142
187	0xbc0f3223	-0.008739981
188	0xbe0aea2f	-0.13565896
189	0x3d4c0c21	0.049816255
190	0x3e15c4be	0.14625832
191	0xbdc9f978	-0.098620355
192	0xbe108ffd	-0.14117427
193	0xbd7d74ae	-0.061878853
194	0x3db9913c	0.090609044
195	0xbdbb0905	-0.0913258
196	0x3d96cad0	0.07362902
197	0x3d12c42d	0.03583162
198	0xbc5a0032	-0.013305711
199	0xbdacd21b	-0.08438512
200	0x3db743d2	0.089484826
201	0x3d9838eb	0.07432731
202	0x3dfb60ad	0.12274299
203	0xbde512d3	-0.11185231
204	0x3d4f7652	0.05064995
205	0xbd671ab4	-0.05642195
206	0x3cbe5758	0.023235008
207	0xbd4e5110	-0.050370276
208	0x3dd4eb9c	0.103965014
209	0xbd7992b6	-0.06093093
210	0x3e034987	0.12821017
211	0xbcbdb5fd	-0.023158068
212	0x3d373d9e	0.044736497
213	0x3d99d20f	0.075107686
214	0xbd992933	-0.07478561
215	0xbdc0508f	-0.09390365
216	0xbc14ef56	-0.009090265
217	0xbdfb7d23	-0.12279727
218	0xbe117da9	-0.14208092
219	0xbcf4d42e	-0.029886331
220	0x3d3961ed	0.045259405
221	0xbbacebe9	-0.005277146
222	0xbe0ff40e	-0.14057943
223	0xbdc582d5	-0.09644095
224	0x3d442e2c	0.047895595
225	0x3dbda2b4	0.09259549
226	0x3dbe1190	0.092806935
227	0xbdc87c5c	-0.09789345
228	0x3da6d2e3	0.08145692
229	0x3ba193a0	0.0049309283
230	0xbc0b5b7b	-0.008505697
231	0x3e02bab6	0.12766537
232	0x3dc86c7c	0.09786317
233	0x3c46c2be	0.012131391
234	0xbe163749	-0.14669527
235	0xbd000f87	-0.031264808
236	0xbd0e3984	-0.03472282
237	0xbc873f09	-0.01650955
238	0x3d44ff5b	0.04809509
239	0x3dd02930	0.10164106
240	0xbd42c5f3	-0.04755206
241	0xbe01fd40	-0.12694263
242	0xbd949a82	-0.072560325
243	0xbdb4650b	-0.08808335
244	0xbccdac76	-0.02510665
245	0x3cf308d3	0.029667294
246	0x3dcd41c5	0.1002231
247	0xbc09d764	-0.0084131695
248	0xbcf6ce87	-0.030127777
249	0xbdd383fc	-0.103279084
250	0xbd9f58ad	-0.077805854
251	0x3cd5ce34	0.026099302
252	0x3c971945	0.018444667
253	0xbd9003dc	-0.07031986
254	0x3d3c575a	0.045981742
255	0xbbbfaf58	-0.00584976

model.0.bias f4 [64]
0	0x3cf3c490	0.029756814
1	0x3d5a01fc	0.05322455
2	0x3db573f2	0.088600054
3	0x3e1bbfa2	0.15209821
4	0xbd422069	-0.04739419
5	0x3d895ce4	0.067071706
6	0x3bdb9146	0.0067006676
7	0x3c75ae67	0.014995194
8	0x3e1c6547	0.15273009
9	0x3c4d54db	0.012532438
10	0xbd13f819	-0.036125276
11	0xbda3d61e	-0.07999824
12	0xbdbd7c40	-0.092522144
13	0x3c9ae8ca	0.01890983
14	0xbde0846f	-0.1096276
15	0x3dc8d2cf	0.098058335
16	0xbe06d391	-0.13166644
17	0x3dbe4728	0.09290916
18	0x3e0f5410	0.13996911
19	0xbd91f9f1	-0.07127751
20	0xbd4fd87f	-0.050743576
21	0xbe21e1fc	-0.15808862
22	0x3b1d928d	0.002404365
23	0x3e2146ec	0.15749711
24	0xbc7c4800	-0.0153980255
25	0x3e2c9aa0	0.1685586
26	0xbe133dd7	-0.14379059
27	0xbce1755e	-0.027521785
28	0x3d85ac2a	0.06526978
29	0x3d715660	0.058920264
30	0xbd8cf300	-0.06882286
31	0xbc221d3f	-0.009894668
32	0xbdf4c7d0	-0.11952174
33	0xbc5aa6f2	-0.013345467
34	0x3dbd5f0d	0.09246645
35	0x3e17281c	0.14761394
36	0xbcc51e14	-0.024062194
37	0x3dce04b2	0.10059489
38	0xbd6db8a5	-0.05803742
39	0x3e061377	0.13093363
40	0x3d149aee	0.036280565
41	0x3d522e9f	0.051313993
42	0xbd9d19ac	-0.07670912
43	0xbd54ce94	-0.05195482
44	0x3dd31cf5	0.103082575
45	0xbde36886	-0.11103921
46	0x3dce2f46	0.100676104
47	0x3dfbf52c	0.12302622
48	0x3e0ea00a	0.13928238
49	0xbd9f8c96	-0.077904865
50	0x3c3f0522	0.011658939
51	0xbd024ba4	-0.031810418
52	0x3dc224d5	0.094796814
53	0x3dc997fb	0.09843441
54	0xbc5ec3cd	-0.013596487
55	0xbda39c38	-0.07988781
56	0xbd92f989	-0.07176501
57	0xbdfe0260	-0.12402797
58	0xbdb77f45	-0.089598216
59	0xbdfbbcc9	-0.12291867
60	0x3ca0ee48	0.019644871
61	0x3bb268e6	0.005444634
62	0x3dc6912a	0.096956566
63	0x3e39c2d6	0.1814073

model.2.weight f4 [128, 64, 4, 4]
0	0xbcd42318	-0.02589564
1	0x3bd86991	0.0066043814
2	0xbd0131a6	-0.03154149
3	0x3c884ee6	0.016639184
4	0x3c66154f	0.014043166
5	0x3b15f4a7	0.002288142
6	0x3c027c05	0.007964139
7	0xbc3017b1	-0.010747836
8	0xbcd5eb0e	-0.02611306
9	0xbbf5c061	-0.00749974
10	0xba2b0e82	-0.0006525294
11	0xbb431be6	-0.0029771267
12	0xbbbc4fa9	-0.005746801
13	0xbc2fd043	-0.010730806
14	0xbce58196	-0.028015893
15	0x3cb019ef	0.021496741
16	0x3ca197e5	0.01972575
17	0xbb0b34f8	-0.0021241289
18	0x39b7b227	0.00035037214
19	0x3c9cf74f	0.019160895
20	0x3c955dce	0.018233206
21	0xbbbf5509	-0.0058389944
22	0xbc40db1a	-0.011770988
23	0x3c93aa98	0.018025681
24	0x3cf2c820	0.029636443
25	0xbc4366e3	-0.011926386
26	0xbcb0eefd	-0.021598333
27	0xbc658938	-0.014009766
28	0xb9f83ef3	-0.00047349147
29	0x3c3813a8	0.011235155
30	0x3c6b3104	0.014354948
31	0x3d053855	0.032524426
32	0xbc06b92a	-0.0082228575
33	0xbc67512b	-0.014118473
34	0xbd0e5c54	-0.03475602
35	0xbc9c1f96	-0.01905803
36	0x3cc1b251	0.023644598
37	0xbce41bbd	-0.027845258
38	0x3afefe41	0.0019454436
39	0xbccaf254	-0.024773754
40	0x3ccbb388	0.02486588
41	0xbc80be51	-0.01571575
42	0xbccaf5f4	-0.024775483
43	0x3bd53b3c	0.0065073054
44	0x3c5fb896	0.013654849
45	0xbb8bcc2a	-0.0042662816
46	0xbb5e923c	-0.0033961674
47	0x3c9503ae	0.018190231
48	0xbcc7034d	-0.024293566
49	0xbc5cc61c	-0.013474967
50	0xbd56b3f4	-0.05241771
51	0xbc1b1f9a	-0.009467984
52	0x3cee67d9	0.029102253
53	0xbcf88346	-0.030336034
54	0xbbe16a88	-0.0068791546
55	0xbc029d4f	-0.007972076
56	0xbcb5a624	-0.022173949
57	0x3cd80377	0.02636884
58	0xbce3f5e9	-0.02782722
59	0xbc5a8fbd	-0.013339934
60	0x3cfd3447	0.030908717
61	0xbcfbfe7f	-0.030761002
62	0x3c6283e4	0.0138253905
63	0x3b811735	0.003939534
64	0x3c8fc85b	0.017551592
65	0x3c44b30c	0.012005579
66	0xbcf20b24	-0.029546328
67	0x3cb05a39	0.021527397
68	0x3cc93752	0.024562512
69	0xbcf0d559	-0.029398607
70	0x3c78a9fb	0.015177245
71	0x3c1f7949	0.0097335065
72	0x3ae7a843	0.0017674047
73	0x3c6453e4	0.013936017
74	0x3b956db6	0.0045601977
75	0xbcee9496	-0.029123586
76	0x3c97a10c	0.01850941
77	0x3cf6c113	0.030121362
78	0x3c9ad4b5	0.018900255
79	0xbb671ec4	-0.003526614
80	0xbc8d5c35	-0.017255882
81	0x3c198a1c	0.009371307
82	0x3c54633c	0.012963112
83	0xbc42979d	-0.011876968
84	0x3c3a94e8	0.011388041
85	0x3c710693	0.01471104
86	0x3a1dc05c	0.00060177385
87	0x3cbfd66c	0.023417674
88	0x3b595a1f	0.0033165289
89	0x3c9efe0f	0.019408254
90	0x3c2e3063	0.0106316535
91	0x3a4ebc30	0.00078863185
92	0xbcf10144	-0.029419549
93	0xbc0a0e80	-0.008426309
94	0x3cc052ee	0.023477044
95	0x3cca8816	0.024723094
96	0x3c234648	0.009965487
97	0xbb892683	-0.004185499
98	0x3c8430c2	0.01613653
99	0xbc908b70	-0.017644614
100	0x3c7de059	0.015495383
101	0xbc9500b5	-0.018188814
102	0x3c283989	0.010267624
103	0x3cacac9d	0.021078402
104	0xbcc727b4	-0.024310924
105	0x3cc01ee6	0.023452234
106	0xbc1800b2	-0.0092775095
107	0xbd08866a	-0.033331312
108	0x3bccfcf5	0.0062557408
109	0x3b6fed2d	0.0036609874
110	0xbb9c54ac	-0.004770836
111	0x3c211cdc	0.009833541
112	0x3cb2ac02	0.021810535
113	0x3c7fe4c1	0.015618504
114	0xbc3e3ac2	-0.011610689
115	0x3ca71a41	0.020398261
116	0xbb9d271e	-0.004795923
117	0xbd02c49f	-0.031925794
118	0x3b5005ab	0.003174166
119	0x3cb7509e	0.022377308
120	0xbcdcaf3c	-0.026939027
121	0x3a66f524	0.00088103325
122	0xbc6fc628	-0.0146346465
123	0xbcbe90c8	-0.023262396
124	0x3c48bcba	0.012252027
125	0x3cea5387	0.028604282
126	0x3c76acea	0.015055874
127	0xbab547c3	-0.0013830591
128	0xbc64dff3	-0.013969409
129	0xbcda31ba	-0.02663504
130	0xbc7a582f	-0.015279814
131	0x3c868017	0.0164185
132	0x3cb6af73	0.022300458
133	0x3c173cdb	0.009230818
134	0xbc8c9ea2	-0.017165486
135	0x3cf1d303	0.029519564
136	0xbc448ce4	-0.011996482
137	0xbc691078	-0.014225118
138	0x3c93c532	0.018038366
139	0x3cb22b18	0.021749064
140	0x3caec71b	0.021335175
141	0xbb249a1b	-0.0025116268
142	0xbc941ae3	-0.018079227
143	0x3cf247f4	0.029575326
144	0x3c706324	0.0146720745
145	0xbce56ddc	-0.028006487
146	0xbbde9f82	-0.006793917
147	0x3bf0f49f	0.00735338
148	0xbcfbe716	-0.030749839
149	0xbd12a96a	-0.035806097
150	0x3aaf33f5	0.0013366925
151	0x3c53b794	0.012922186
152	0x3d127ab2	0.035761543
153	0xbb873584	-0.0041262526
154	0x3bd000ac	0.0063477363
155	0xbcc0d2ab	-0.023537954
156	0xbc924b4a	-0.017858166
157	0x3c1acc2a	0.009448091
158	0xbaf55a10	-0.0018718857
159	0xbd0752aa	-0.03303782
160	0x3c3a32e1	0.01136467
161	0xbbeb3828	-0.007178325
162	0xbc0dc3a5	-0.008652602
163	0xbc873d92	-0.016508851
164	0xbc350f46	-0.011051005
165	0xbcdd69c9	-0.027027981
166	0x3b28d45b	0.002576134
167	0x3b4ef5bc	0.0031579575
168	0x3b90ae66	0.004415321
169	0xbb7d6633	-0.0038665652
170	0x3c0d79c7	0.008634991
171	0x3b38eb0c	0.002821627
172	0x3cd38730	0.025821298
173	0xbcf29abc	-0.029614799
174	0xbcacd4ad	-0.021097505
175	0xbc9b42e3	-0.018952793
176	0x3cbc6606	0.022997867
177	0xbbceb0d9	-0.006307703
178	0x3cb58e8f	0.022162704
179	0x3c07633c	0.008263405
180	0xbc80b654	-0.01571194
181	0xbb2ab636	-0.0026048548
182	0x3ca11cd8	0.019667074
183	0xbb697b87	-0.0035626607
184	0x3b012da7	0.0019711049
185	0x3c9f9185	0.019478569
186	0x3cac10e6	0.021004152
187	0x3bfc7d61	0.007705376
188	0xbbc36dac	-0.0059640016
189	0xb9f24262	-0.00046207296
190	0x3ce43558	0.027857468
191	0x3c0a019f	0.008423238
192	0x3c282bf6	0.010264387
193	0xbc51a994	-0.012796778
194	0xbc9d7d52	-0.019224796
195	0xbc756044	-0.014976565
196	0x3c40d832	0.011770295
197	0xbc9a80ae	-0.018860187
198	0x3ca64197	0.020294948
199	0x3cccd406	0.025003444
200	0xbc988c04	-0.018621452
201	0xbc402238	-0.011726908
202	0x3c3d168d	0.011541021
203	0x3cbf9a2f	0.02338895
204	0xbc6283ed	-0.013825399
205	0x3cb7a3db	0.022417
206	0x3cab548e	0.020914342
207	0x3b6edfbd	0.0036449276
208	0x3c7377ba	0.014860088
209	0xbc8f250b	-0.017473718
210	0x3c315bb3	0.010825085
211	0x3cadb7da	0.021205831
212	0x3c51c912	0.012804287
213	0xbcde3f99	-0.027129935
214	0x3c18c352	0.009323912
215	0x3b93a9d1	0.0045063277
216	0x3a1824ce	0.0005803824
217	0xbb17eb97	-0.0023181194
218	0x3cbcc89b	0.023044875
219	0xbc57f39e	-0.013180641
220	0xbccdfd4f	-0.025145201
221	0x3b950bd4	0.004548529
222	0x3c542071	0.012947188
223	0xbcb6f58f	-0.022333888
224	0x3c445255	0.01198252
225	0x3c39ba2c	0.011335891
226	0xbb5b22c5	-0.0033437472
227	0xbb4bc1dd	-0.0031090893
228	0xbcd14690	-0.025546342
229	0xbcbfb2ce	-0.02340069
230	0xbc2ef78d	-0.010679138
231	0x3c11d71c	0.008901384
232	0x3c1d4fe5	0.009601568
233	0x3c301d67	0.010749198
234	0x3b566826	0.0032715886
235	0x3b1559ee	0.0022789198
236	0x3bbf432d	0.0058368654
237	0x39f528ab	0.00046760342
238	0x3ce4c582	0.02792621
239	0xbcafb484	-0.021448381
240	0xbc815cd1	-0.015791329
241	0xbd134299	-0.035952184
242	0xbcccc17e	-0.024994608
243	0xbc395466	-0.011311626
244	0x3cafe112	0.021469627
245	0x3c5a0950	0.013307884
246	0xbcf57cab	-0.029966673
247	0x3c10cc06	0.0088377055
248	0xbc72301b	-0.014781977
249	0xbb5b846d	-0.003349568
250	0xbcf3fe1d	-0.029784257
251	0x3cb6e0e2	0.02232403
252	0x3cb76787	0.022388233
253	0xbd170fdc	-0.03688036
254	0xbc3e8faf	-0.0116309365
255	0xbce4dcbf	-0.027937291

model.2.bias f4 [128]
0	0x3c91f13d	0.017815227
1	0xbbfc4c57	-0.00769953
2	0xbc87cc46	-0.016576897
3	0xbc6d29e5	-0.0144753205
4	0xbcbb605f	-0.022873102
5	0x3d056d6f	0.032575067
6	0xbc075063	-0.008258912
7	0xbc92e09b	-0.017929366
8	0x3d0387ba	0.03211186
9	0x3cb95391	0.022622855
10	0x3c3917c3	0.011297169
11	0x3c7a3ba1	0.015273006
12	0xbc0ec2df	-0.008713453
13	0xbbd2ec63	-0.006436871
14	0x3cc9d75a	0.02463882
15	0xbb82378e	-0.003973908
16	0x3c493830	0.012281463
17	0xbb75b92f	-0.0037494411
18	0xbce976e9	-0.028499084
19	0x3a6e9b5a	0.00091021287
20	0x3b9af86b	0.0047293208
21	0x3912ea62	0.0001401096
22	0xbca3b457	-0.019983454
23	0xbd052be8	-0.032512575
24	0x3ceb98fd	0.028759474
25	0x3c159059	0.009128653
26	0xbc30c8ae	-0.010790033
27	0xbca475bc	-0.020075671
28	0x3cc1a00e	0.02363589
29	0xbb7c89a2	-0.0038534184
30	0xbc15e57f	-0.009148954
31	0x3cdcf395	0.026971618
32	0x3c71c8cd	0.014757347
33	0x3a9da37c	0.0012026872
34	0x3cd083e2	0.025453512
35	0xbcf13376	-0.029443484
36	0x3945c7a9	0.00018861763
37	0xbbfb9dda	-0.0076787295
38	0x3bd17d45	0.006393107
39	0xbcbf21d1	-0.023331555
40	0xbcf329ed	-0.029683078
41	0xbc8f4cbb	-0.017492643
42	0xbbd6254c	-0.006535208
43	0xbcb5a845	-0.022174964
44	0xbd0f0b7b	-0.034923058
45	0xba9647f5	-0.0011465537
46	0x3c3fa3a1	0.011696727
47	0xbbba9269	-0.005693723
48	0xbb7c23a3	-0.003847339
49	0xba321bbc	-0.0006794294
50	0xbcd9f6f6	-0.026607018
51	0x3b36a50e	0.0027869376
52	0xbb9fca9d	-0.0048764483
53	0xbcb52b8c	-0.022115491
54	0x3cb28f58	0.021796867
55	0xbcd7cc02	-0.026342396
56	0x3cdeef71	0.027213784
57	0x3cdd7247	0.02703203
58	0x3b09d72d	0.0021032796
59	0x3cb79299	0.02240877
60	0xbce767d1	-0.028247746
61	0xbc37f396	-0.011227509
62	0x3cc4d888	0.024029031
63	0x3c8db8cc	0.017300032
64	0x3c818299	0.015809344
65	0xbd01ecd6	-0.031720005
66	0xbb109d6d	-0.002206649
67	0xbc443849	-0.01197631
68	0x3ce475c5	0.027888188
69	0x3c369d2d	0.011145872
70	0x3cb9de5c	0.022689037
71	0x3b3982c7	0.002830671
72	0xbc6a0008	-0.014282234
73	0xbca8c7f0	-0.02060315
74	0x3bcf104d	0.006319082
75	0xbb348d00	-0.0027549863
76	0xbc7a8a9c	-0.015291836
77	0xbca7ebb4	-0.020498134
78	0xbc84e7e1	-0.01622385
79	0x3c8fbf13	0.017547166
80	0x3d168dbd	0.036756266
81	0x3ca78638	0.020449743
82	0xbc13df79	-0.009025448
83	0x3be5a5a4	0.0070082713
84	0xbc56e14e	-0.01311524
85	0x3ae513bd	0.0017477196
86	0xbbc894e1	-0.0061212634
87	0x3b1e5169	0.002415741
88	0xbc6e26e7	-0.014535642
89	0x3cb3b6a7	0.021937681
90	0x3c712732	0.014718818
91	0x3ca4aff5	0.020103434
92	0x3c679561	0.014134736
93	0x3ccc9ca0	0.024977028
94	0xbca54a75	-0.020177105
95	0x3cac19ce	0.021008398
96	0x3c7c3eed	0.015395862
97	0xbbb841b0	-0.005623065
98	0xbbfdc55f	-0.0077444757
99	0x3ce978a7	0.028499914
100	0xbd02ff0c	-0.031981513
101	0xbcd7ba0f	-0.026333837
102	0xbbb3f793	-0.0054921596
103	0xbc7ea3dd	-0.015541998
104	0x3b26bca6	0.0025442033
105	0xbcb8360b	-0.022486707
106	0xbce4d5f8	-0.02793406
107	0xbc99e929	-0.018787937
108	0xbc71ae58	-0.014751039
109	0xbd129f4a	-0.03579644
110	0xbca5bb83	-0.020231014
111	0x3aff5094	0.001947897
112	0x3cbd6ad6	0.023122232
113	0xbc00e260	-0.007866472
114	0x3d00e575	0.031468827
115	0xbc9e21f2	-0.019303296
116	0x3cb6c687	0.022311462
117	0xbce15730	-0.027507395
118	0x3c7b1c81	0.01532662
119	0x3cc986db	0.024600437
120	0xbc061f8f	-0.008186235
121	0x3b7a3497	0.0038178319
122	0x3aad8ade	0.0013240238
123	0x3c503b67	0.012709475
124	0xbd0018d0	-0.031273663
125	0x3ca08a33	0.019597149
126	0x3b8f22e0	0.004368171
127	0x3c5d8644	0.013520781

model.3.weight f4 [128]
0	0x3f841eeb	1.0321935
1	0x3f812cfd	1.0091854
2	0x3f838750	1.0275669
3	0x3f81add0	1.0131168
4	0x3f853b82	1.0408785
5	0x3f84e39f	1.0381964
6	0x3f80ae0c	1.0053115
7	0x3f84862a	1.0353444
8	0x3f7f7655	0.99789935
9	0x3f805c87	1.0028237
10	0x3f821258	1.0161848
11	0x3f819c07	1.0125741
12	0x3f8141d4	1.0098214
13	0x3f82554a	1.0182278
14	0x3f849013	1.0356468
15	0x3f848703	1.0353702
16	0x3f8387b3	1.0275787
17	0x3f80d270	1.006422
18	0x3f845096	1.0337093
19	0x3f83b291	1.0288869
20	0x3f8117e3	1.0085415
21	0x3f826d4d	1.0189606
22	0x3f86d8f2	1.0534956
23	0x3f855942	1.0417864
24	0x3f858eb0	1.043417
25	0x3f81752e	1.0113885
26	0x3f85a918	1.0442228
27	0x3f84b119	1.0366546
28	0x3f815ee2	1.0107081
29	0x3f82602a	1.0185597
30	0x3f82eabf	1.0227889
31	0x3f80c207	1.0059212
32	0x3f7fbccc	0.99897456
33	0x3f81bfc2	1.0136645
34	0x3f82149b	1.0162538
35	0x3f848a52	1.0354712
36	0x3f809fff	1.0048827
37	0x3f817e8f	1.0116748
38	0x3f84d4f2	1.0377486
39	0x3f807e67	1.0038575
40	0x3f809077	1.0044087
41	0x3f818c5f	1.0120963
42	0x3f813bff	1.0096434
43	0x3f81982d	1.0124565
44	0x3f822e09	1.0170299
45	0x3f810ce3	1.0082058
46	0x3f80df35	1.0068117
47	0x3f805edf	1.0028952
48	0x3f821033	1.0161194
49	0x3f821f0f	1.0165728
50	0x3f81ecd6	1.0150402
51	0x3f803160	1.0015068
52	0x3f838078	1.027358
53	0x3f867dae	1.0507104
54	0x3f84035b	1.0313524
55	0x3f81cb08	1.0140085
56	0x3f815ad4	1.0105844
57	0x3f8206a0	1.0158272
58	0x3f842ab4	1.0325532
59	0x3f82e962	1.0227473
60	0x3f812566	1.0089538
61	0x3f853a3a	1.0408394
62	0x3f86c73a	1.0529549
63	0x3f80551b	1.0025972
64	0x3f8112e5	1.0083891
65	0x3f8250be	1.018089
66	0x3f84e8ca	1.0383542
67	0x3f840af8	1.0315847
68	0x3f7f0fae	0.996333
69	0x3f84a2b7	1.0362157
70	0x3f848d93	1.0355705
71	0x3f80cff8	1.0063467
72	0x3f8227f1	1.0168439
73	0x3f8537a1	1.0407602
74	0x3f81364a	1.0094693
75	0x3f821619	1.0162994
76	0x3f81673f	1.0109633
77	0x3f80afbb	1.0053629
78	0x3f7fabe8	0.99871683
79	0x3f818f43	1.0121845
80	0x3f81ab1a	1.0130341
81	0x3f847de7	1.0350922
82	0x3f7fad11	0.99873453
83	0x3f80e7c6	1.0070732
84	0x3f8555fe	1.0416868
85	0x3f81c807	1.0139169
86	0x3f811b17	1.0086392
87	0x3f810a1e	1.0081213
88	0x3f81b364	1.0132871
89	0x3f812258	1.0088606
90	0x3f801d0d	1.0008866
91	0x3f80e1a5	1.0068861
92	0x3f815b9d	1.0106083
93	0x3f81e908	1.014924
94	0x3f802a77	1.0012959
95	0x3f814feb	1.0102514
96	0x3f8069e7	1.0032319
97	0x3f80c557	1.0060223
98	0x3f8105c3	1.0079883
99	0x3f85af01	1.0444032
100	0x3f84f6cf	1.038782
101	0x3f8209df	1.0159262
102	0x3f822333	1.0166992
103	0x3f817f9e	1.0117071
104	0x3f84ca1b	1.0374178
105	0x3f8196a5	1.0124098
106	0x3f81393c	1.0095592
107	0x3f81cb95	1.0140253
108	0x3f81ecda	1.0150406
109	0x3f85689e	1.0422552
110	0x3f82fa15	1.0232569
111	0x3f8034dd	1.0016133
112	0x3f816749	1.0109645
113	0x3f82e489	1.0225993
114	0x3f816dce	1.0111635
115	0x3f81872e	1.0119379
116	0x3f82a4af	1.0206507
117	0x3f8216ad	1.016317
118	0x3f8034f5	1.0016161
119	0x3f813b98	1.0096312
120	0x3f82dda1	1.0223886
121	0x3f815b1d	1.010593
122	0x3f81bf76	1.0136554
123	0x3f866b9d	1.0501591
124	0x3f870418	1.0548124
125	0x3f80f235	1.0073916
126	0x3f815073	1.0102676
127	0x3f82a84f	1.0207614

model.3.bias f4 [128]
0	0x3b21c100	0.0024681687
1	0xbb00a8ac	-0.0019631786
2	0x3bd3c939	0.0064631966
3	0xbbabd0ec	-0.0052434113
4	0x3d2a4d1a	0.041577436
5	0xbb002196	-0.0019551269
6	0xba90b7ef	-0.0011041145
7	0x3bea9168	0.007158447
8	0x3b8aba1c	0.0042336117
9	0xb7e39f48	-2.713468e-05
10	0xb980b182	-0.00024546316
11	0x3c147810	0.009061828
12	0xbc0d38b6	-0.008619478
13	0x3ccb7c48	0.024839535
14	0x3c7f2159	0.015571916
15	0x3ca5bdb3	0.020232057
16	0xbbb8f449	-0.0056443554
17	0xbb40a299	-0.002939379
18	0xbaf1d83d	-0.0018451285
19	0x3cd889ae	0.026432838
20	0xbc3a4a35	-0.011370231
21	0x3c26d92c	0.010183614
22	0x3cf0ffa4	0.029418774
23	0x3d0f52c6	0.03499105
24	0x3c8e4d52	0.017370854
25	0x3c5dd697	0.013539932
26	0x3cd79067	0.026313974
27	0x3d0b1b71	0.033961717
28	0xbb900415	-0.004395018
29	0x3b9849d9	0.004647475
30	0x3c1e9ec0	0.009681404
31	0x3bf0bade	0.007346495
32	0x3b1951d6	0.0023394725
33	0x3a8d2f53	0.001077155
34	0xbc300283	-0.010742786
35	0x3cf2a888	0.029621378
36	0xba442ae4	-0.0007483198
37	0x3c56fe41	0.013122142
38	0x3c930fcd	0.01795187
39	0x3b81f11d	0.0039655105
40	0x3bc3958d	0.0059687556
41	0x3ce1de1a	0.027571727
42	0xbc0fead1	-0.008784012
43	0xbc6e3adc	-0.0145404
44	0x3cbf5cad	0.023359621
45	0xb9d4f62c	-0.00040619203
46	0xbc1bd890	-0.009512082
47	0x3c0b347c	0.0084964
48	0x3c0e9af5	0.008703937
49	0xbc16d793	-0.00920667
50	0x3c1741f6	0.009232035
51	0x39f598d3	0.00046843904
52	0x3c90c168	0.017670348
53	0x3cdf98a2	0.02729446
54	0x3adc059c	0.001678634
55	0xbaea989e	-0.0017898267
56	0xbb0915b8	-0.0020917486
57	0x3c19b0cb	0.00938053
58	0x3cb9ebec	0.022695504
59	0xbc8f1b81	-0.01746917
60	0xbb91cf0e	-0.0044497317
61	0x3ce27d21	0.027647557
62	0x3c5031b1	0.01270716
63	0xbba595a6	-0.00505324
64	0xbb3b2bfd	-0.0028560155
65	0xbb04086c	-0.0020146621
66	0x3ab9a6cb	0.0014164088
67	0x3d0012bd	0.03126787
68	0x3bc80628	0.0061042495
69	0x3d24abd8	0.040202945
70	0x3c527d5f	0.012847274
71	0xbbb575bf	-0.005537718
72	0xbaac9141	-0.0013165848
73	0x3cf99b51	0.030469568
74	0xbb991687	-0.004671875
75	0x3c276187	0.010216123
76	0xbbe11c48	-0.0068698265
77	0x3b9b8816	0.0047464473
78	0x3b48acdd	0.0030620613
79	0xbcaac834	-0.020847417
80	0xb82c8570	-4.113227e-05
81	0x3cfea495	0.031084338
82	0x3c51506f	0.0127755245
83	0xbbf03c5d	-0.0073314146
84	0x3c24e729	0.0100648785
85	0xbb2e4198	-0.002658939
86	0xbadbe1c0	-0.0016775653
87	0xbc365dac	-0.011130732
88	0x3c486062	0.012230011
89	0x3b879de4	0.004138695
90	0x3bcbe3c2	0.006222219
91	0x3b8e535a	0.0043434324
92	0x3b0ecb75	0.002178875
93	0x3c4872aa	0.012234369
94	0x3ae50adb	0.0017474549
95	0xbc410f50	-0.011783436
96	0xbc8fdb3c	-0.017560594
97	0x3c089474	0.008336175
98	0xbb742510	-0.0037253536
99	0x3d0e9f8b	0.03482012
100	0x3cd1d9e7	0.0256166
101	0xbc591748	-0.01325018
102	0xbcba7e8b	-0.022765419
103	0xbc7e7034	-0.015529681
104	0x3d0b06fe	0.033942215
105	0x399305e4	0.00028042414
106	0xb89e099e	-7.5358184e-05
107	0x3ba4dc8d	0.0050311745
108	0xbb04d39c	-0.002026773
109	0x3b27ac73	0.0025584965
110	0x3c868d32	0.016424749
111	0xbc4f41f7	-0.012650005
112	0x3c2b90da	0.010471547
113	0x3c7d4c25	0.015460049
114	0x3c4a5346	0.0123489555
115	0xbbbfdf9f	-0.005855515
116	0x3ca2891c	0.01984077
117	0xbbedd0b1	-0.007257544
118	0x3b4b0622	0.0030978997
119	0x3a8f8c36	0.001095182
120	0xbbf8f9e6	-0.0075981496
121	0xbca90cd0	-0.020635992
122	0xbcb43dae	-0.022002067
123	0x3c424430	0.0118570775
124	0x3c958786	0.0182531
125	0x3c3251bb	0.010883744
126	0x3bbffceb	0.0058590076
127	0x3c4db387	0.01255501

model.3.running_mean f4 [128]
0	0xbdab5999	-0.08366699
1	0xbd3854e9	-0.04500285
2	0xbdd192b8	-0.102330625
3	0xbe16913a	-0.14703837
4	0xbe2136f3	-0.15743618
5	0xbccac93a	-0.024754155
6	0x3e0fe138	0.14050758
7	0xbe3934e4	-0.18086582
8	0x3e215ac4	0.1575728
9	0xbd9737c4	-0.07383683
10	0x3cfc7428	0.030817106
11	0x3cf0c6a6	0.029391598
12	0x3e0eb120	0.13934755
13	0xbdf58f12	-0.11990179
14	0xbdbbd98a	-0.09172352
15	0xbdabf1db	-0.0839574
16	0xbce10aec	-0.027471028
17	0x3ce27e92	0.027648244
18	0xbdcb88fc	-0.09938237
19	0xbe24f6dc	-0.16109794
20	0x3e1b46bb	0.151637
21	0xbde8fdd0	-0.11376536
22	0xbddff331	-0.10935057
23	0xbe685aa7	-0.22690831
24	0xbda44dff	-0.08022689
25	0x3cd5f5b6	0.02611814
26	0xbe0aa805	-0.13540657
27	0xbe49d91c	-0.19711727
28	0xbc48c003	-0.01225281
29	0xbe00e758	-0.1258825
30	0xbdcd4ec2	-0.100247875
31	0x3d987183	0.07443526
32	0x3d0a8660	0.033819556
33	0xbd5703bc	-0.052493796
34	0xbd773c2d	-0.060360122
35	0xbe675405	-0.22590645
36	0xbd5f4e60	-0.054518104
37	0x3e026dcc	0.12737197
38	0xbd4866fe	-0.048926346
39	0xbdbce57b	-0.092234574
40	0x3e3a72ca	0.18207851
41	0x3d8201d0	0.06348002
42	0xbcfa3cdc	-0.030546598
43	0xbe56a24d	-0.2096035
44	0xbe125694	-0.1429084
45	0xbc326259	-0.010887706
46	0xbc6bac72	-0.014384376
47	0x3da83833	0.08213844
48	0xbd0baafb	-0.034098607
49	0xbe2894fc	-0.16463083
50	0xbd9c1a84	-0.07622245
51	0xbbdf3b87	-0.006812516
52	0xbcf994c9	-0.030466454
53	0xbdbcf3cb	-0.09226187
54	0xbde25450	-0.110512376
55	0xbe072ee5	-0.13201483
56	0x3d90b544	0.07065824
57	0xbc778756	-0.01510795
58	0xbd037cd6	-0.032101475
59	0xbbe29eed	-0.006915918
60	0x3d36e8c5	0.04465558
61	0xbdaca962	-0.08430745
62	0x3c855786	0.016277086
63	0xbd9b636d	-0.07587323
64	0x3ce5be38	0.028044805
65	0xbd0c0994	-0.034188822
66	0xbdc07110	-0.09396565
67	0xbe407690	-0.18795228
68	0x3cd2de0b	0.025740644
69	0xbe43e754	-0.19131213
70	0xbd944395	-0.07239453
71	0x3d9ba7f5	0.07600395
72	0x3e0d1213	0.13776426
73	0xbe008a36	-0.12552723
74	0xbdeababc	-0.11461398
75	0x3cb4845a	0.022035766
76	0xbda34dcf	-0.07973825
77	0x3a8d15bb	0.0010763922
78	0x3d98639d	0.07440875
79	0x3e9b38a6	0.30316657
80	0x3e3b80f6	0.18310913
81	0xbe19680c	-0.14981097
82	0x3d455341	0.0481751
83	0xbe5fea8f	-0.21866821
84	0xbd1012bb	-0.035174113
85	0xbde63505	-0.112405814
86	0xbbbb8763	-0.0057229265
87	0xbe2e67e1	-0.17031814
88	0xbddf6a3a	-0.10908933
89	0xbdaa2a6b	-0.08308872
90	0x3e26de83	0.16295819
91	0x3d82380f	0.063583486
92	0x3d4c51be	0.049882643
93	0x3ddda7bc	0.108230084
94	0x3dae9d4a	0.08526094
95	0x3e46f488	0.19429219
96	0x3d701305	0.05861189
97	0x3d2ad2c4	0.041704908
98	0x3c8328ee	0.016010728
99	0xbdddcd2a	-0.108301476
100	0xbe0c13d4	-0.13679439
101	0x3d9443c8	0.07239491
102	0x3af2e7fa	0.0018532269
103	0xbca0251c	-0.019548945
104	0xbe5d066c	-0.21584481
105	0x3d975789	0.07389743
106	0xbd3ae33e	-0.04562687
107	0xbc7d47c2	-0.015459003
108	0xbe25707c	-0.1615619
109	0xbd14df81	-0.036345962
110	0xbe335621	-0.17513324
111	0xbd1b0585	-0.03784706
112	0xbde1fa1d	-0.110340334
113	0xbc674367	-0.014115191
114	0x3d565137	0.052323546
115	0xbde05bf7	-0.10955041
116	0xbdbae4d0	-0.09125674
117	0xbdee3589	-0.11631305
118	0xbaff5be5	-0.0019482343
119	0xbd3d6055	-0.046234448
120	0xbda64494	-0.08118549
121	0x3d5071d7	0.050889816
122	0x3ae6f844	0.0017621596
123	0xbd72d6d3	-0.059286904
124	0xbd83af14	-0.06429878
125	0xbc9bd2ed	-0.019021476
126	0x3af9d9dc	0.001906212
127	0x3de72135	0.112856306

model.3.running_var f4 [128]
0	0x3aa7e997	0.0012810704
1	0x39f37e9a	0.00046442897
2	0x3a983b35	0.0011614325
3	0x3b06f172	0.002059069
4	0x3a9e5f90	0.0012082923
5	0x3b1e658b	0.002416941
6	0x3bff5d23	0.007793085
7	0x3aaa4d49	0.0012993003
8	0x3ac7c630	0.001524156
9	0x3af76cf3	0.0018877074
10	0x3a8c87cb	0.0010721622
11	0x3a9b858f	0.0011865365
12	0x3ac45315	0.0014978374
13	0x3a4641ac	0.00075628865
14	0x3aa65407	0.0012689837
15	0x3a14ce1e	0.0005676466
16	0x3b37f860	0.0028071627
17	0x3b8213b0	0.003969632
18	0x3a890897	0.001045483
19	0x3aa055bd	0.0012232583
20	0x3bbd6242	0.0057795355
21	0x3a6703a0	0.0008812491
22	0x39ba8e4b	0.000355827
23	0x3ab49a11	0.0013778826
24	0x3adb1118	0.0016713468
25	0x3ab09c52	0.0013474321
26	0x3aba99ec	0.0014236546
27	0x3a76b0ce	0.0009410501
28	0x3aab769f	0.0013081616
29	0x3ac5217d	0.0015039888
30	0x3a199603	0.00058588403
31	0x3a29c2ca	0.0006475864
32	0x3a8c38ce	0.0010698081
33	0x3ab6c4f3	0.0013944193
34	0x3a8247e2	0.0009939636
35	0x3aeb6887	0.0017960229
36	0x3a7c77a0	0.00096308626
37	0x3b8e2696	0.004338096
38	0x3a5b45ec	0.0008364606
39	0x3b24da00	0.0025154352
40	0x3c04ca59	0.008104884
41	0x3ab6ee10	0.0013956446
42	0x3a8c24b1	0.0010692087
43	0x3accf078	0.001563563
44	0x3a12f282	0.00056055945
45	0x3a554f73	0.0008137144
46	0x3aa99945	0.0012939355
47	0x3b27d590	0.002560947
48	0x3a3f195e	0.0007289852
49	0x3acf04b3	0.0015794247
50	0x3a6ab23a	0.00089529494
51	0x3a45f28f	0.00075510977
52	0x3a29438d	0.0006456904
53	0x3a729b09	0.00092546694
54	0x39f3ea2f	0.00046523052
55	0x3a89971e	0.0010497307
56	0x3ab9cb68	0.0014175
57	0x3abbf7a6	0.0014340773
58	0x3a49ba42	0.0007695296
59	0x39d8e79f	0.00041371302
60	0x3b3cf2a8	0.0028831158
61	0x3aec72be	0.0018039567
62	0x393f16b1	0.00018223633
63	0x3a3f3fbb	0.00072955684
64	0x3a22c738	0.00062094955
65	0x3ac4f9e7	0.001502809
66	0x3abed72f	0.0014559979
67	0x3aca199b	0.0015419008
68	0x3a537f66	0.0008067995
69	0x3af19822	0.001843218
70	0x3aa194f6	0.0012327719
71	0x3a9caefb	0.0011954004
72	0x3b47ee7e	0.0030507143
73	0x3aab4ec9	0.0013069744
74	0x3ad7b2b2	0.0016456454
75	0x3a93fbcc	0.0011290251
76	0x3b305223	0.0026904426
77	0x3a4812c0	0.00076321885
78	0x3a79d35a	0.000953009
79	0x3a844548	0.0010091448
80	0x3b1873fb	0.002326249
81	0x3a89ab04	0.0010503237
82	0x3b092429	0.0020926094
83	0x3b3f96ce	0.0029234174
84	0x3b119907	0.0022216456
85	0x3ab92771	0.0014126134
86	0x3a7f76e4	0.0009745194
87	0x3b8fbe44	0.004386695
88	0x3a4e6f67	0.00078748766
89	0x3a3e8350	0.0007267492
90	0x3b91b30b	0.0044463924
91	0x3a5e106d	0.00084710756
92	0x39e45ff0	0.00043559028
93	0x3a01120a	0.00049236475
94	0x3a927f29	0.0011176813
95	0x3bf032a7	0.007330257
96	0x3a190e0e	0.0005838581
97	0x39d783f1	0.000411063
98	0x3aaf93d9	0.0013395502
99	0x3ae39c57	0.0017365318
100	0x3ab61f1b	0.0013894768
101	0x39e3630e	0.00043370615
102	0x3a15d0a2	0.00057149876
103	0x3a02f3a4	0.0004995412
104	0x3b0e5961	0.0021720754
105	0x3a849940	0.0010116473
106	0x39ff1f27	0.000486606
107	0x3accb31e	0.0015617346
108	0x3aac8004	0.001316071
109	0x3a91d5fb	0.0011126393
110	0x3a22f18f	0.00062158046
111	0x3a3514f4	0.00069077243
112	0x3a3b3dea	0.000714271
113	0x3aef5b3e	0.0018261445
114	0x3af6eade	0.0018838306
115	0x3a166909	0.00057376974
116	0x3a8f262b	0.0010921409
117	0x3acb9664	0.0015532491
118	0x3a8fdbe7	0.001097557
119	0x3a7337e7	0.00092780445
120	0x3a40afc3	0.0007350409
121	0x3a676c61	0.00088281004
122	0x3a1a5fe9	0.00058889255
123	0x3a9f8735	0.0012171032
124	0x39f7a633	0.0004723534
125	0x398f5748	0.00027340115
126	0x3aa96b38	0.001292563
127	0x3a80f4bb	0.000983856

model.5.weight f4 [1, 128, 4, 4]
0	0x3b8cb251	0.004293718
1	0x3c910ffe	0.017707821
2	0x3c0abc43	0.008467737
3	0x3c317b4a	0.010832617
4	0xbd0ddc09	-0.03463367
5	0xbd2fa837	-0.04288503
6	0xbd04c229	-0.032411728
7	0xbd17d547	-0.03706863
8	0xbd2c1063	-0.042007815
9	0xbc9312ec	-0.017953359
10	0xbd04e6e9	-0.032446776
11	0xbd09aa6c	-0.033609793
12	0xbc8f982f	-0.017528621
13	0xbc5df419	-0.013546967
14	0xbca9aae7	-0.020711375
15	0xbc8154fe	-0.015787598
16	0x3c7d9440	0.01547724
17	0xbc166aa7	-0.009180701
18	0x3cc414ff	0.023935793
19	0xbbf0b8ba	-0.00734624
20	0x3d03eb83	0.032207023
21	0x3cec4685	0.02884222
22	0x3c204d35	0.009784033
23	0x3ce09de9	0.027419047
24	0x3bacc799	0.0052728173
25	0x3c09e882	0.008417251
26	0x3cae00b8	0.021240577
27	0x3c97b327	0.018518044
28	0x3cb79138	0.022408113
29	0xbbe4157d	-0.0069605694
30	0x3c3ec1a0	0.0116428435
31	0xbc46e680	-0.012139916
32	0xbcefebab	-0.02928718
33	0xbd0011f3	-0.031267118
34	0xbce8cdf9	-0.028418528
35	0x3bbb00ed	0.0057068975
36	0xbcfc3fbf	-0.030792115
37	0xbd432024	-0.047638074
38	0xbcba1af4	-0.02271793
39	0xbcb111d6	-0.02161495
40	0xbd33eab5	-0.043925006
41	0xbd2d0d29	-0.04224888
42	0xbd15aaa4	-0.03653969
43	0xbbea29c1	-0.0071460907
44	0xbd084cc2	-0.033276327
45	0xbcb77032	-0.022392366
46	0x3b998382	0.0046848664
47	0xbc43873c	-0.011934098
48	0x3b50e25e	0.0031873207
49	0x3c6e967c	0.014562245
50	0x3ae037bd	0.0017106455
51	0x3c568648	0.013093539
52	0x3c33d964	0.010977123
53	0x3cc7a420	0.024370253
54	0x3c82a247	0.01594652
55	0x3a97a771	0.0011570287
56	0x3cfa8ac4	0.030583747
57	0x3cccff42	0.02502406
58	0x3bf9446a	0.0076070325
59	0x3c96b004	0.018394478
60	0x3d096d58	0.033551544
61	0x3c816bf4	0.015798546
62	0x3c45f2be	0.0120818
63	0x3adc3e1c	0.0016803178
64	0xbc978f98	-0.018501088
65	0xbd07a1b5	-0.0331132
66	0xbcab4f5c	-0.020911865
67	0xbd0d584d	-0.03450804
68	0xbcd8a8e0	-0.026447713
69	0xbd10baed	-0.035334516
70	0xbd4c2062	-0.04983557
71	0xbcb6f278	-0.022332415
72	0xbcb4c350	-0.022065789
73	0xbd526267	-0.051363375
74	0xbcd1b8f5	-0.02560089
75	0xbc075d0e	-0.008261932
76	0xbc52eddf	-0.012874096
77	0xbc8f657f	-0.017504452
78	0x3b8cf058	0.004301112
79	0xbc87f69e	-0.016597088
80	0x3c8d5596	0.017252725
81	0x3c442b72	0.011973249
82	0x3be04de6	0.0068452237
83	0xbc39d9d7	-0.011343441
84	0xbc835deb	-0.016035995
85	0xbcb3999e	-0.021923836
86	0xbc876f62	-0.016532604
87	0xbb89fc53	-0.0042109876
88	0xbc1cc418	-0.009568237
89	0xbcd18447	-0.02557577
90	0xbc9df2fb	-0.019280901
91	0xbcb3dc03	-0.021955496
92	0x3bfe9525	0.0077692443
93	0xbca88f65	-0.020576188
94	0xbd0f9c40	-0.03506112
95	0xbd295852	-0.041343994
96	0xbc245838	-0.010030799
97	0xbcd2168b	-0.025645515
98	0x3bbb6648	0.00571898
99	0xbbe2806f	-0.006912283
100	0xbc6d7962	-0.014494272
101	0xbc43810d	-0.011932624
102	0x3c0685be	0.008210598
103	0x3c1eca97	0.009691856
104	0xbcbacf87	-0.022804035
105	0xbc424c4e	-0.011859013
106	0xbca45115	-0.020058194
107	0xbc7630f8	-0.0150263235
108	0x3b0693fa	0.0020534978
109	0x3c95f8a0	0.01830703
110	0xbb80c08f	-0.003929205
111	0xbc20098e	-0.009767903
112	0xbcb5cb80	-0.022191763
113	0xbcdeb304	-0.02718497
114	0xbd48254d	-0.048863698
115	0xbd23fbf2	-0.040035196
116	0xbc97a69c	-0.018512063
117	0xbc7f0976	-0.0155662205
118	0xbd0c0607	-0.034185436
119	0xbcae50d6	-0.02127878
120	0xbad6b4e3	-0.0016380813
121	0xbd328be8	-0.043590456
122	0xbcb35d10	-0.021894962
123	0xbd27880d	-0.040901233
124	0xbc580500	-0.013184786
125	0xbbc3d955	-0.0059768357
126	0xbc4d53a7	-0.012532151
127	0x3a7d556b	0.00096639124
128	0x3c48517c	0.012226459
129	0x3c3b4650	0.011430338
130	0x3ca3964b	0.019969126
131	0xbc3fb703	-0.011701348
132	0x3b119505	0.0022214067
133	0x3bd9b62d	0.0066440315
134	0xbcb90ed2	-0.022590075
135	0xba8e129c	-0.0010839286
136	0xbca6bae3	-0.020352786
137	0xbc80d784	-0.015727766
138	0x3c3d2509	0.011544474
139	0xbc18fa2e	-0.009336991
140	0x3ca27c3c	0.01983463
141	0x3c652b9f	0.013987451
142	0xbba0d84e	-0.004908598
143	0x3b4e5cfc	0.0031488528
144	0xbbb051a9	-0.0053808284
145	0xb8ad9691	-8.277328e-05
146	0xbc92439f	-0.01785451
147	0xbb95f7e5	-0.0045766705
148	0xbcc2082c	-0.023685537
149	0xbbbb5949	-0.0057174307
150	0x3bf0eaee	0.0073522246
151	0x3b62367f	0.0034517345
152	0xbccca674	-0.024981715
153	0xbc9d8772	-0.019229624
154	0xbc445e63	-0.011985394
155	0xbb28d427	-0.0025761218
156	0x3bd194b8	0.0063959025
157	0x3c945a52	0.018109474
158	0xbadbc6f5	-0.0016767668
159	0x3b73a31a	0.0037176074
160	0xbc569c79	-0.013098829
161	0x3c61bd1b	0.013777996
162	0xbbd1049e	-0.0063787242
163	0x3c9e2fbc	0.01930987
164	0xbc733dda	-0.0148462895
165	0x3d0105eb	0.031499784
166	0xbbcbc549	-0.0062185866
167	0x3cb96e0f	0.022635488
168	0x3c9c226b	0.01905938
169	0x3c9d38c6	0.01919211
170	0x3cb37638	0.021906957
171	0x3c545152	0.012958841
172	0xbc73cc7c	-0.014880296
173	0x3cd4fece	0.026000407
174	0x3cdbda51	0.0268375
175	0xbbd55602	-0.006510497
176	0x3bab25e0	0.005223021
177	0x3acca060	0.001561176
178	0x3c880da3	0.016608065
179	0x3bc7c853	0.0060968786
180	0x3c8d87ab	0.017276606
181	0xbba57443	-0.00504926
182	0x3aca7436	0.001544601
183	0xbc191d4b	-0.009345363
184	0x3c3e4643	0.011613431
185	0x3cb1c50a	0.0217004
186	0x3bde3210	0.0067808703
187	0x3d027aff	0.03185558
188	0xbc2b6337	-0.010460666
189	0x3c802ba4	0.01564581
190	0x3d04859c	0.032353982
191	0x3ce97539	0.028498279
192	0xb8f70b7c	-0.00011780017
193	0xbccfeb28	-0.025380686
194	0x3c234021	0.00996402
195	0x3ac44b72	0.0014976098
196	0xbcd86014	-0.026413001
197	0xbc7259cc	-0.014791917
198	0x3b0dcc8d	0.0021636814
199	0x3b2ad6cc	0.002606797
200	0xbc175a27	-0.009237803
201	0xbc87900a	-0.016548175
202	0xbb9d9ee6	-0.004810202
203	0xbc012d6a	-0.007884363
204	0x3c307865	0.010770892
205	0xbc46135c	-0.012089577
206	0xbcbd1b65	-0.023084352
207	0x3b2f19eb	0.002671833
208	0xbcadaf1b	-0.02120166
209	0xbc97b11d	-0.018517071
210	0x398213fc	0.00024810422
211	0xbb718959	-0.0036855547
212	0xbcb7d424	-0.022440024
213	0xbbc60ce8	-0.006044019
214	0xbd1ee47c	-0.03879212
215	0xbb9fac4e	-0.0048728352
216	0xbc79c740	-0.015245259
217	0xbcda094d	-0.026615763
218	0xbcd3f581	-0.025873901
219	0xbbd0e6ab	-0.006375154
220	0xbc8baae6	-0.017049264
221	0xbc3fa904	-0.011698011
222	0xbb8fd9c8	-0.004389975
223	0xbcf4fbf3	-0.029905295
224	0xbd0160cc	-0.031586453
225	0x3c1077eb	0.008817653
226	0xbc84ae6f	-0.016196458
227	0x3c7c5057	0.015400014
228	0xbd06dba3	-0.032924306
229	0xbc82f925	-0.015987942
230	0xbd097191	-0.03355557
231	0xbcc8fa99	-0.024533557
232	0xbca6709a	-0.020317364
233	0xbd23dc88	-0.040005237
234	0xbc068383	-0.008210066
235	0xbcc7afa7	-0.02437575
236	0xbd349073	-0.04408307
237	0xbd313d73	-0.043271493
238	0xbd3131af	-0.043260273
239	0x3c101fe7	0.008796669
240	0x3c21aa9c	0.009867337
241	0xbd49d9c8	-0.049279958
242	0xbd37a6e9	-0.044836912
243	0xbd4242bb	-0.04742692
244	0x3c5b107d	0.01337063
245	0xbcb03ae1	-0.02151245
246	0xbd32c0db	-0.043640953
247	0xbd2cadde	-0.042158
248	0xbb65b26b	-0.0035048972
249	0xbcae010a	-0.02124073
250	0xbcab998a	-0.020947237
251	0xbd4399f8	-0.047754258
252	0x3b5e3f6b	0.0033912312
253	0xbc06ee38	-0.008235507
254	0xbc7f3402	-0.0155763645
255	0xbd14d0bd	-0.03633188
