Project/saved_models/discriminator_v3.pth (torch, 551932 bytes, 9 tensors)

model.0.weight f4 [64, 3, 4, 4]
0	0xbde24f8d	-0.11050329
1	0x3d5a08ea	0.053231157
2	0xbe068369	-0.13136066
3	0xbdab9a1d	-0.08379004
4	0x3e098704	0.1343041
5	0xbd375902	-0.04476262
6	0xbded211d	-0.115785815
7	0xbd74ef0b	-0.05979828
8	0x3b9155f0	0.0044352934
9	0x3d982a35	0.07429925
10	0xbdc3b8bc	-0.0955672
11	0x3d4deeb5	0.050276477
12	0x3d539579	0.05165622
13	0xbdef4ca8	-0.11684543
14	0x3d723fa4	0.059142724
15	0xbe0e2e47	-0.13884841
16	0xbd285dd3	-0.041105103
17	0xbd5acdce	-0.053418927
18	0xbd3f6972	-0.04673142
19	0x3dfad648	0.12247902
20	0x3d0c996f	0.034326013
21	0x3ccd8436	0.025087457
22	0x3dc82e3b	0.09774443
23	0xbdd673f7	-0.10471337
24	0xbbe3f636	-0.006956841
25	0xbe02cf5e	-0.12774417
26	0x3d972f4f	0.0738207
27	0x3de6ccc0	0.11269522
28	0x3d22e9de	0.039773814
29	0xbbeb3ffb	-0.007179258
30	0x3d9df73c	0.07713172
31	0x3e0a181d	0.13485761
32	0x3dc0fea6	0.0942357
33	0x3d86d2e0	0.0658319
34	0x3b3034e4	0.0026886994
35	0x3ded980e	0.11601268
36	0xbcc89643	-0.024485713
37	0x3dd0c899	0.10194511
38	0xbda933e9	-0.08261854
39	0xbdb443a8	-0.08801967
40	0x3e122037	0.14270101
41	0xbe076038	-0.13220298
42	0xbdce162d	-0.100628234
43	0x3d888530	0.066660285
44	0xbdfb2f21	-0.122648485
45	0x3d96a6b6	0.07356016
46	0x3dea52cf	0.11441576
47	0xbdf76a66	-0.12080841
48	0xbc9bfe67	-0.019042207
49	0x3d93404c	0.07189998
50	0xbdf4e3b6	-0.11957495
51	0x3d0a5233	0.033769798
52	0x3e0fd570	0.14046264
53	0x3d8cbda6	0.0687211
54	0xbcfdc671	-0.030978413
55	0xbdc8cbf6	-0.098045275
56	0xbd702f7d	-0.05863904
57	0xbd880a30	-0.06642568
58	0x3dc3fa6e	0.0956925
59	0xbd8866b9	-0.06660218
60	0xbdd9be6c	-0.10632023
61	0xbd8cf6a2	-0.06882979
62	0x3de780be	0.113038525
63	0x3cb176a9	0.021663027
64	0xbdb1a0a8	-0.08673221
65	0xbd99b069	-0.07504351
66	0xbd455cb0	-0.048184097
67	0x3d734de8	0.05940047
68	0xbe0586a9	-0.1303965
69	0x3db1c7b2	0.08680667
70	0x3bd4e3f3	0.0064969
71	0x3e14a260	0.14515066
72	0x3d8e15fc	0.06937787
73	0xbe01513c	-0.12628645
74	0xbd09d8b0	-0.033653915
75	0xbe0eea7b	-0.13956635
76	0x3deae103	0.11468699
77	0xbc633744	-0.013868157
78	0x3e045171	0.12921692
79	0xbd7efc05	-0.062252063
80	0xbd8bc4ac	-0.068246216
81	0xbd71b054	-0.05900605
82	0xbb9d5d61	-0.0048023914
83	0xbe00a5a4	-0.12563187
84	0xbdcfcfdd	-0.10147069
85	0x3d6048f3	0.05475707
86	0x3dd2ef81	0.10299588
87	0xbd2bf7d5	-0.041984398
88	0xbd3b8415	-0.04578026
89	0x3dde2b7e	0.10848139
90	0x3e07550a	0.13216034
91	0xbe12449a	-0.14283982
92	0x3daf2b4e	0.085531816
93	0xbd84743f	-0.06467485
94	0xbdc6b544	-0.097025424
95	0xbdc8e3bc	-0.09809062
96	0x3deb2339	0.114813276
97	0x3c83ba21	0.016079964
98	0x3dbbe3ca	0.09174307
99	0x3c8cfda5	0.01721079
100	0x3b77f35f	0.003783427
101	0xbd92f609	-0.07175834
102	0x3d1681e8	0.036744982
103	0xbd49e4f0	-0.049290597
104	0x3dfb98fb	0.12285038
105	0xbe146034	-0.14489824
106	0x3e0e3d28	0.13890517
107	0xbd8d6608	-0.069042265
108	0xbdc596eb	-0.09647926
109	0x3d8af1cd	0.06784401
110	0xbd9a74ec	-0.07541832
111	0xbde297db	-0.110641204
112	0x3e07d58b	0.13265054
113	0xbe0c1e13	-0.13683347
114	0x3d511e45	0.051054258
115	0x3dbdcd44	0.09267667
116	0xbd53b7ab	-0.05168883
117	0xbdbc980d	-0.09208689
118	0xbdf974f7	-0.121805124
119	0xbdee0745	-0.1162248
120	0xbcbfeb87	-0.023427738
121	0x3db2590e	0.08708392
122	0x3e020be2	0.12699845
123	0x3d6c4dcb	0.057691377
124	0x3de67b32	0.112539664
125	0xbd91475e	-0.0709369
126	0x3db66b4a	0.089071825
127	0x3d5f027e	0.054445736
128	0x3e099312	0.13435009
129	0x3c0acfec	0.008472424
130	0x3c3330e6	0.010936951
131	0x3c532b7c	0.012888785
132	0xbd5321e5	-0.051545996
133	0xbdd0957d	-0.101847626
134	0xbd7b2597	-0.061315145
135	0x3e0589b3	0.1304081
136	0x3e116e3a	0.14202204
137	0xbdbffb17	-0.093740635
138	0x3d96ffb0	0.07372987
139	0x3d83af83	0.064299606
140	0x3d8b475c	0.0680072
141	0xbde33e83	-0.110959075
142	0xbde41b5c	-0.11138031
143	0xbdc083ae	-0.09400116
144	0xbdc71380	-0.09720516
145	0xbdcfc9db	-0.10145923
146	0xbd4a7e77	-0.049437013
147	0xbe094fa1	-0.13409282
148	0xbc66a14c	-0.014076542
149	0x3d924073	0.07141199
150	0xbddacc3f	-0.10683488
151	0xbe0abbce	-0.13548204
152	0x3d406969	0.046975527
153	0x3de9d0f4	0.11416808
154	0xbdd6cd36	-0.1048836
155	0xbdb61d7a	-0.08892341
156	0x3d0bbbb6	0.034114562
157	0xbcf79f42	-0.030227307
158	0x3df49118	0.11941737
159	0x3a642412	0.00087028847
160	0x3d318122	0.04333604
161	0x3db7e3ce	0.08978997
162	0x3c9b6cbe	0.01897275
163	0x3bfd8abc	0.0077374857
164	0xbc4f7824	-0.012662921
165	0x3dacfc81	0.08446599
166	0xbc8b681d	-0.017017419
167	0x3e0fa364	0.14027172
168	0xbd74cd8d	-0.05976634
169	0x3ce690fa	0.028145302
170	0x3c429dd5	0.01187845
171	0x3e1018cb	0.14071958
172	0x3da5b871	0.0809182
173	0x3d35dbb4	0.04439898
174	0x3d885e87	0.06658655
175	0xbe094e13	-0.13408689
176	0x3dac94ac	0.084267944
177	0x3e03f20a	0.128853
178	0x3da39a20	0.079883814
179	0xbbb7b52b	-0.0056063137
180	0xbc303a27	-0.010756052
181	0xbe048334	-0.12940675
182	0x3d0621fd	0.032747258
183	0xbd4760fa	-0.04867647
184	0xbbc83e06	-0.0061109094
185	0xbde74f28	-0.11294395
186	0x3e02bd01	0.12767412
187	0xbdf7c081	-0.12097264
188	0x3dfb34f5	0.1226596
189	0xbc9a10ea	-0.018806893
190	0xbdf5ac7c	-0.119957894
191	0xbd9e23f1	-0.07721699
192	0xbd64e796	-0.05588492
193	0xbddb6798	-0.10713118
194	0xbe012fd7	-0.12615906
195	0x3e11aff5	0.14227279
196	0xbde927b5	-0.11384527
197	0xbd435fc4	-0.04769875
198	0x3e089fb7	0.13342176
199	0xbc99e546	-0.018786084
200	0x3d87e23e	0.06634949
201	0xba2e6b61	-0.0006653574
202	0xbd85d712	-0.06535162
203	0xbd5fe62e	-0.054662876
204	0x3c9c9fc3	0.01911915
205	0x3dd77ccd	0.10521851
206	0xbd9960aa	-0.0748914
207	0x3d0f261e	0.03494846
208	0xbd5b495d	-0.05353676
209	0xbd20e911	-0.03928477
210	0x3b9d33b4	0.0047974233
211	0x3cd9ed28	0.026602343
212	0xbdfa673d	-0.122267224
213	0xbdec51a7	-0.115390114
214	0x3db7bc43	0.08971455
215	0xbd4a0438	-0.04932043
216	0xbdb9d942	-0.09074642
217	0x3d84d5ea	0.06486113
218	0xbdf809a1	-0.121112116
219	0xbdc20747	-0.09474044
220	0xbd9c7a3a	-0.076405
221	0xbd8edf77	-0.06976216
222	0x3d954903	0.072893165
223	0xbd48d791	-0.049033705
224	0xbdeec1b4	-0.1165804
225	0xbdf7c938	-0.12098926
226	0xbcdbc86d	-0.026828969
227	0x3dd7d3f6	0.10538475
228	0xbdb83228	-0.089939415
229	0x3dc6ca50	0.09706557
230	0xbd390c5b	-0.0451778
231	0x3dc84fdb	0.09780856
232	0xbe0be148	-0.13660157
233	0xbd500b99	-0.05079231
234	0x3d243617	0.040090647
235	0xbd8978c1	-0.06712485
236	0xbce9b10c	-0.028526805
237	0x3d8efd23	0.06981876
238	0xbcd3277d	-0.025775665
239	0x3d7db874	0.061943486
240	0x3dbd355c	0.09238693
241	0xbd0e7426	-0.034778737
242	0x3dce008d	0.10058699
243	0xbdb6394d	-0.08897648
244	0x3dc3c151	0.095583566
245	0xbd8ddb8b	-0.0692664
246	0xbcd96c4c	-0.026540898
247	0x3e16ccc8	0.14726555
248	0x3a464122	0.0007562806
249	0xbd332783	-0.043738853
250	0xbda0e578	-0.07856268
251	0x3cc49057	0.023994608
252	0x3cc67951	0.02422777
253	0x3dd27a76	0.10277264
254	0xbdadf016	-0.084930584
255	0xbdbb842b	-0.091560684

model.0.bias f4 [64]
0	0xbdc08aab	-0.09401449
1	0xbe147440	-0.14497471
2	0x3ca0bff1	0.019622775
3	0x3df8f8b5	0.12156812
4	0xbc58d3c0	-0.013234079
5	0xbdd67579	-0.10471625
6	0xbdf861fa	-0.121280625
7	0x3e146b19	0.1449398
8	0xbc3275b8	-0.010892324
9	0xbc1466a9	-0.009057679
10	0xbdac41d1	-0.08410991
11	0x3cb704af	0.0223411
12	0xbd9df713	-0.07713141
13	0x3d721ac6	0.059107564
14	0xbda6df1d	-0.08148024
15	0x3d77a7b8	0.060462683
16	0xbc3ec7d1	-0.01164432
17	0xbe186249	-0.14881243
18	0x3dd4055b	0.10352584
19	0x3e21b9fe	0.15793607
20	0xbde5ee14	-0.112270504
21	0x3e006639	0.12538995
22	0x3d9daa91	0.076985486
23	0x3e010a8f	0.12601684
24	0x3baadabd	0.005214064
25	0x3e1872c9	0.14887537
26	0xbdfd37e8	-0.12364179
27	0xbb3517a1	-0.0027632492
28	0xbd982630	-0.07429159
29	0xbdb1d287	-0.08682733
30	0x3d9ba28b	0.07599362
31	0x3dee4faf	0.11636292
32	0xbc6f1485	-0.014592295
33	0xbdd2ae7b	-0.10287186
34	0x3d3e33ce	0.046436124
35	0xbdb9d8d2	-0.09074558
36	0xbd4ddebd	-0.050261248
37	0x3dd77f9b	0.10522386
38	0x3dedff4d	0.116209604
39	0xbe137aa9	-0.1440226
40	0xbdfc709a	-0.123261645
41	0x3d6fe2eb	0.058566015
42	0xbda362ee	-0.07977854
43	0xbe23418b	-0.15942971
44	0xbd99f008	-0.075164855
45	0x3bcd1ce2	0.0062595466
46	0x3dc2119c	0.09476015
47	0xbcab2693	-0.020892417
48	0x3e2c26b4	0.16811639
49	0x3dee23df	0.116279356
50	0x3d24a4ab	0.040196102
51	0xbdafceb5	-0.08584348
52	0x3d330158	0.043702453
53	0x3cfa95b4	0.030588962
54	0x3db9392b	0.09044107
55	0xbde41aff	-0.111379616
56	0x3d888e7d	0.066678025
57	0x3d85084e	0.064957246
58	0x3e1b30b1	0.15155293
59	0x3ddf3849	0.108994074
60	0xbdd762ef	-0.10516917
61	0x3deb775f	0.114973776
62	0x3e22aad6	0.15885481
63	0xbd231b4e	-0.03982096

model.2.weight f4 [128, 64, 4, 4]
0	0xbcc5cb07	-0.024144663
1	0xbcbfe748	-0.023425713
2	0x3a868872	0.0010264053
3	0x3cd6a1a8	0.02620013
4	0x3ba49e97	0.005023788
5	0x3ccfcf23	0.025367325
6	0xbc3e3acd	-0.011610699
7	0x3c9482b9	0.01812874
8	0x3bf945e9	0.007607211
9	0x3c8807d1	0.01660529
10	0xb8c79498	-9.516737e-05
11	0xbcb8d358	-0.022561714
12	0x3b6f47de	0.0036511342
13	0xbcda5c06	-0.026655208
14	0xbcd915d0	-0.026499659
15	0x3c816b4f	0.015798239
16	0xbccfb258	-0.025353596
17	0x3ce7a3ad	0.028276289
18	0x3cccfd27	0.025023056
19	0xbc98e874	-0.01866553
20	0x3c8ecfa6	0.017432999
21	0xbcf010cb	-0.029304883
22	0x3caf6fcc	0.021415614
23	0xbc5c1439	-0.013432556
24	0xbc83e4e3	-0.016100353
25	0xbc820d4f	-0.015875487
26	0x3c3ee283	0.011650684
27	0xbcce5640	-0.025187612
28	0xbc418563	-0.011811587
29	0xbc987306	-0.018609535
30	0xbbce58ea	-0.0062972205
31	0xbc36e147	-0.011162109
32	0xbca62ab2	-0.02028403
33	0x3a0dc053	0.00054073817
34	0xbc6a26dd	-0.014291492
35	0x3c48c2cd	0.012253475
36	0x3c710a30	0.014711902
37	0xbd152cc7	-0.036419656
38	0xbc5655e8	-0.013082005
39	0xbd0b0c22	-0.033947118
40	0xbca4c650	-0.020114094
41	0xbca4db76	-0.020124178
42	0x3c2ec5ee	0.010667307
43	0x3c867dd4	0.016417421
44	0x3bd0e5e0	0.0063750595
45	0x3cbb0380	0.022828817
46	0xbbb7e855	-0.005612413
47	0xbbc56fa2	-0.0060252706
48	0xbcbfffe6	-0.023437452
49	0xbcb3be79	-0.02194141
50	0x3c7d73ab	0.015469472
51	0xbca9128c	-0.020638727
52	0x3ca8a543	0.020586615
53	0xbcdb4836	-0.026767831
54	0x3cbe4112	0.023224387
55	0xbcb72a6b	-0.022359094
56	0xbcfdaa3c	-0.030964963
57	0xbca2c12b	-0.0198675
58	0x3b11d5b9	0.0022252633
59	0xbbf55481	-0.0074868803
60	0x3cb936d2	0.022609148
61	0x3b1ddab3	0.0024086654
62	0xb9dabf3c	-0.0004172268
63	0xbcccb991	-0.024990829
64	0xbb142d3c	-0.002260997
65	0x3b97035a	0.004608554
66	0x3ca3dedf	0.020003734
67	0xbc082e86	-0.008311873
68	0xbb8a9734	-0.0042294506
69	0x3c5d39c2	0.01350254
70	0x3ca2bf04	0.019866474
71	0xbce8bfba	-0.028411735
72	0x3cdfb00d	0.027305627
73	0xbce5b27a	-0.028039206
74	0xbd0c3972	-0.03423447
75	0xbbab3327	-0.0052246037
76	0xbb0a59eb	-0.0021110724
77	0xbcdf65f5	-0.027270297
78	0x3bd94641	0.0066306894
79	0x3c2bd02a	0.010486642
80	0x3c4f2f7b	0.012645598
81	0xbc093034	-0.008373309
82	0xbc58c8f7	-0.0132315075
83	0x3c4387e8	0.011934258
84	0xbcccb71b	-0.024989655
85	0x3c01cdb9	0.007922583
86	0xbbb0341a	-0.0053773047
87	0x3cba921f	0.022774754
88	0x39f99dab	0.00047610453
89	0x3ce271fc	0.027642243
90	0xbc946e26	-0.01811893
91	0x39d2b8a5	0.00040191892
92	0x3c8c271b	0.01710849
93	0xbca2630f	-0.019822625
94	0x3cab24f9	0.020891653
95	0xbb7232a9	-0.0036956465
96	0xbc2ec8e9	-0.010668018
97	0x3b16c5ad	0.0023006008
98	0x3b817d67	0.0039517167
99	0xbc82c8d7	-0.015964909
100	0x3ccd95ba	0.02509581
101	0xbca7aaea	-0.02046724
102	0xbc0b78a9	-0.008512654
103	0xbc09a20b	-0.00840045
104	0xbbce96bb	-0.0063045896
105	0x3ca7294b	0.020405432
106	0x3abf6e64	0.0014605043
107	0xbc2787bf	-0.0102252355
108	0x3c119f28	0.008888043
109	0xbcb847d8	-0.022495195
110	0xbc2e75d9	-0.010648214
111	0x3bc9c525	0.0061575347
112	0xbba549a0	-0.005044177
113	0x3cbc943b	0.0230199
114	0x3c77b0ed	0.015117866
115	0xbc206dde	-0.009791819
116	0xbc03f4cb	-0.008053969
117	0x3ccdfadc	0.025144033
118	0xbc8d8aec	-0.017278157
119	0xbc8778b9	-0.016537057
120	0x3c0d298a	0.008615861
121	0xbcf13a03	-0.029446607
122	0x3cd8bc94	0.026457109
123	0x3cd1a162	0.025589649
124	0xbcc599dd	-0.02412122
125	0xbc4d872e	-0.012544436
126	0x3cb55683	0.022135979
127	0x3c9f4f0b	0.01944687
128	0xbb6737aa	-0.003528098
129	0x3c4aa321	0.0123679945
130	0xbc584352	-0.013199644
131	0xbc9846d1	-0.018588455
132	0x3c71aedb	0.014751161
133	0xbce254e8	-0.027628377
134	0xbc701ee8	-0.014655806
135	0x3a91ee48	0.0011133635
136	0x3c9d3b8f	0.019193439
137	0x3c667c8a	0.014067778
138	0xb9902d4d	-0.00027499572
139	0x3ceece6b	0.029151162
140	0xbc9b4378	-0.01895307
141	0xbc93e2d8	-0.018052503
142	0x3a6d484d	0.0009051606
143	0x3ca190e7	0.019722415
144	0xbce01e3c	-0.027358167
145	0xbc3a8556	-0.011384329
146	0x3b994a8a	0.004678075
147	0x3bc999a5	0.006152349
148	0xbcb785b3	-0.02240262
149	0xbcf71497	-0.030161185
150	0xbc91f312	-0.0178161
151	0xbcb9261b	-0.022601178
152	0x3c4f44c9	0.012650677
153	0xbc328adf	-0.010897367
154	0x3ceb60ef	0.028732745
155	0x3b66c8d5	0.003521492
156	0x3c324f4d	0.010883165
157	0x3c9163cd	0.017747784
158	0x3c815756	0.015788715
159	0xbc204ea0	-0.009784371
160	0x3c6a2e1b	0.014293219
161	0x3c7e0a58	0.015505396
162	0xbca9d16e	-0.020729747
163	0xb7f29254	-2.8916787e-05
164	0x3cab7338	0.020928964
165	0x3ce5e34c	0.028062485
166	0xbc1b0a94	-0.009462971
167	0x3b87b9f5	0.004142041
168	0x3c97f4af	0.018549291
169	0x3c7631a0	0.01502648
170	0xbc82a73b	-0.015948882
171	0xbc4e0ae9	-0.012575843
172	0x3c7765d2	0.015099959
173	0xbc04e4bb	-0.008111174
174	0x3ce100f0	0.027466267
175	0xbb7cb873	-0.0038562089
176	0x3cbf0c37	0.023321254
177	0x3a31b854	0.0006779481
178	0xbc71f691	-0.014768259
179	0xbcbdc413	-0.023164785
180	0xbc8a5666	-0.016886901
181	0x3c4eba01	0.012617589
182	0xbb3b87ea	-0.0028614947
183	0x3c96181a	0.01832204
184	0xbc8f3191	-0.01747969
185	0x3a8c2c82	0.0010694417
186	0x3cc9aa5b	0.024617365
187	0xbd00807d	-0.031372536
188	0xbb768f69	-0.00376221
189	0x3c760971	0.015016899
190	0x3cfbb97d	0.030728096
191	0xbcd46220	-0.025925696
192	0x3cd9674a	0.02653851
193	0x3cd392c7	0.025826825
194	0xba77cdd6	-0.0009452974
195	0xbca0f8ea	-0.019649941
196	0xbcbb9e2d	-0.022902573
197	0xbd01264f	-0.031530675
198	0x3caca471	0.021074506
199	0x3cec94be	0.02887952
200	0xbc80e9b1	-0.015736433
201	0x3ca056c7	0.019572629
202	0x3cdf62fe	0.027268883
203	0xbc6363e1	-0.013878793
204	0xbb69dfff	-0.003568649
205	0xbbd01c14	-0.0063510034
206	0x3c64b8e0	0.013960093
207	0x3c4968cb	0.012293051
208	0x3c878a0e	0.016545322
209	0xbd046882	-0.03232623
210	0x3cda632a	0.026658613
211	0xbba777b1	-0.005110704
212	0x3b522416	0.0032064966
213	0x3c13052d	0.008973402
214	0xbce17e72	-0.027526114
215	0xbace8aa7	-0.0015757874
216	0x3bc36df9	0.0059640375
217	0x3bb622ae	0.0055583334
218	0xbd0036f7	-0.03130242
219	0x39c90420	0.0003834078
220	0xbce87869	-0.028377729
221	0x3cbd3641	0.02309716
222	0x3c95443d	0.018221015
223	0x3c91b1f2	0.017785046
224	0x3b8fce52	0.004388609
225	0x3cdd85cb	0.027041337
226	0xbc4371cd	-0.011928988
227	0x3bd091b8	0.0063650273
228	0x3cfac541	0.030611636
229	0xbcb69330	-0.022286981
230	0x3ceea051	0.02912918
231	0xbc8c7e99	-0.01715021
232	0x3ce8038f	0.02832201
233	0x3c25596b	0.01009212
234	0x391d97ab	0.00015029187
235	0x3b3e0a61	0.0028997886
236	0xbc1709c0	-0.009218633
237	0x3c6b173d	0.014348802
238	0x3c647731	0.013944433
239	0xbaee8f7a	-0.0018200718
240	0xbcbe125d	-0.023202116
241	0x3c8bf796	0.017085832
242	0x3cebb0d2	0.028770838
243	0x3c64246a	0.013924697
244	0xbc34a6df	-0.011026113
245	0x3b66e82b	0.0035233598
246	0x3c092353	0.008370238
247	0x3cced563	0.025248235
248	0xba49f524	-0.00077040703
249	0x3cf76ee3	0.030204242
250	0xbcd7f355	-0.026361147
251	0x3cc06036	0.023483377
252	0xbcc44cde	-0.023962434
253	0xbcfda68d	-0.030963207
254	0xbc61fe43	-0.013793531
255	0x3c1f4825	0.00972179

model.2.bias f4 [128]
0	0x3c941779	0.018077599
1	0xbb71c72f	-0.0036892404
2	0x3cbe0863	0.023197358
3	0x3c8428e9	0.016132789
4	0x3cf943c1	0.030427815
5	0xbcebd3f6	-0.028787594
6	0xbcc62d8a	-0.024191637
7	0xbc283344	-0.010266129
8	0x3ce38801	0.027774813
9	0xbc5ecc0f	-0.013598456
10	0x3cfc02ea	0.030763108
11	0x3c6304a5	0.013856088
12	0xbb06d3b9	-0.0020572974
13	0xbc77782c	-0.015104335
14	0x3b4e9750	0.0031523295
15	0x3c65f487	0.014035351
16	0x3cdd4310	0.027009517
17	0x3b3a60ce	0.0028439048
18	0xbce0bde9	-0.027434306
19	0xbcf568d6	-0.029957216
20	0xbc041ecd	-0.008063984
21	0x3c1e4204	0.009659294
22	0x3b186767	0.0023254992
23	0xbcd584a1	-0.026064219
24	0xbce5e1d0	-0.028061777
25	0x3b4339e7	0.002978915
26	0xbcf84661	-0.030306997
27	0xbb9dba62	-0.0048134783
28	0x3c1eef1a	0.009700561
29	0x3c188cf9	0.009310954
30	0xbcf9272c	-0.030414186
31	0x3bb01104	0.005373122
32	0xbbde4f98	-0.0067843907
33	0x3c73f1e3	0.014889213
34	0x3cbb610e	0.022873428
35	0x3c67014d	0.014099431
36	0xbc92f326	-0.017938208
37	0x3c5ea1ae	0.013588352
38	0xbb8e177f	-0.004336297
39	0xbaf8f64f	-0.0018994304
40	0xbcb31c63	-0.021864122
41	0x3ca27c55	0.019834677
42	0x3cb3a250	0.021927983
43	0xbbcc0304	-0.0062259454
44	0xbcc2ca82	-0.023778204
45	0xbc398c5b	-0.011324967
46	0x3bbe6fb3	0.0058116554
47	0xbc5b6786	-0.013391381
48	0xbcf3415d	-0.029694254
49	0xbccd91db	-0.025093963
50	0xbca4c1e4	-0.020111986
51	0x3cbc7ce2	0.023008768
52	0xbaf918c1	-0.001900457
53	0xbc0e2e48	-0.0086780265
54	0x3ce3bfe4	0.027801462
55	0x3c4e2485	0.012581949
56	0x3ce5acbb	0.028036466
57	0xbb80b3a7	-0.003927666
58	0x3cf14724	0.029452868
59	0x3cef4727	0.029208733
60	0x3bc6fbe1	0.006072507
61	0x3c36b500	0.011151552
62	0x3ce3cf3f	0.027808784
63	0xbcc2c049	-0.02377333
64	0x3c3ea5d0	0.0116362125
65	0xbca39c49	-0.019971984
66	0xbc8aa3cf	-0.016923813
67	0x3bb8e486	0.0056424765
68	0x3c3e183f	0.01160246
69	0xbb8e7a37	-0.0043480652
70	0x3cbaf32d	0.022821033
71	0xbcea9ece	-0.028640177
72	0x3ca87368	0.020562842
73	0xbc0e6c9a	-0.008692885
74	0xbc406ecc	-0.011745166
75	0xbc149730	-0.009069249
76	0xbb57261b	-0.003282911
77	0xbb0cf5f3	-0.0021508902
78	0x3cf03d04	0.02932597
79	0xbc8aa73d	-0.016925449
80	0x3bfb3c69	0.0076671136
81	0xbbd9a831	-0.0066423644
82	0x3c171af0	0.009222731
83	0x3c546232	0.012962865
84	0xbb7e8f55	-0.0038842757
85	0xbc50b721	-0.012738974
86	0xbceb6520	-0.028734744
87	0x3cc57e4d	0.024108076
88	0xbc979c73	-0.018507218
89	0xb98034b0	-0.00024453318
90	0xbc5d7ecb	-0.013518999
91	0x3bee253e	0.007267623
92	0x3b02107f	0.0019846258
93	0xbc904021	-0.017608704
94	0xbc7420b6	-0.014900377
95	0xba43299e	-0.0007444861
96	0x3bf3a7d5	0.0074357786
97	0xbc006842	-0.007837357
98	0x3c87bc42	0.01656926
99	0xbc18885e	-0.009309856
100	0x3cc6080a	0.024173755
101	0xbc24f1c9	-0.010067412
102	0xbcc7afca	-0.024375815
103	0x3a0bc050	0.0005331086
104	0xbca62dce	-0.020285513
105	0x3c950679	0.018191563
106	0x391fd88b	0.0001524409
107	0xbc9a4697	-0.018832488
108	0xbc815d97	-0.015791697
109	0xbbbe8e29	-0.0058152867
110	0xbabd62a1	-0.0014448949
111	0x3c4cd088	0.01250089
112	0xbcad548a	-0.021158475
113	0x3cc2da07	0.023785604
114	0xbcee60cb	-0.029098889
115	0x3cc07bb8	0.023496494
116	0x3c674f85	0.01411808
117	0xbbe56417	-0.007000457
118	0x3af396bc	0.0018584351
119	0x3c6d0b9c	0.0144681
120	0x3cb1275a	0.02162521
121	0xbc4ea94e	-0.012613608
122	0x3ca66257	0.020310564
123	0xbcf6c937	-0.030125244
124	0x3c0a808d	0.0084535
125	0x3c01cda0	0.00792256
126	0x3b48a2ad	0.003061454
127	0x3ca5a55a	0.020220447

model.3.weight f4 [128]
0	0x3f85cc72	1.0453017
1	0x3f843486	1.0328529
2	0x3f844e35	1.0336367
3	0x3f845786	1.033921
4	0x3f840f5f	1.0317191
5	0x3f81fc0e	1.0155046
6	0x3f839056	1.0278423
7	0x3f846d95	1.0345942
8	0x3f835fa6	1.0263565
9	0x3f845b14	1.0340295
10	0x3f8233e9	1.0172092
11	0x3f8449f6	1.0335071
12	0x3f85aaa8	1.0442705
13	0x3f839e21	1.0282632
14	0x3f84ff66	1.0390441
15	0x3f84b19e	1.0366704
16	0x3f82e9bd	1.0227581
17	0x3f84fd10	1.0389729
18	0x3f85b5fc	1.0446162
19	0x3f855c8e	1.041887
20	0x3f839f27	1.0282944
21	0x3f83d326	1.0298812
22	0x3f82f3f4	1.0230699
23	0x3f84132c	1.0318351
24	0x3f817575	1.011397
25	0x3f8518d3	1.0398201
26	0x3f8350f0	1.0259075
27	0x3f84204f	1.032236
28	0x3f84543c	1.0338206
29	0x3f84877a	1.0353844
30	0x3f8097ca	1.0046322
31	0x3f863e3e	1.0487745
32	0x3f85a205	1.044007
33	0x3f846cc3	1.0345691
34	0x3f85339e	1.0406377
35	0x3f82962c	1.0202079
36	0x3f848aa8	1.0354815
37	0x3f8484c0	1.0353012
38	0x3f851f72	1.0400221
39	0x3f82b10f	1.0210284
40	0x3f83bc38	1.0291815
41	0x3f840b92	1.0316031
42	0x3f839d47	1.0282372
43	0x3f84a2f2	1.0362227
44	0x3f8365f8	1.0265493
45	0x3f846702	1.0343935
46	0x3f860f34	1.047339
47	0x3f85f542	1.0465472
48	0x3f85006e	1.0390756
49	0x3f847485	1.0348059
50	0x3f840ea1	1.0316964
51	0x3f8444b1	1.0333463
52	0x3f8440f5	1.0332323
53	0x3f82868e	1.0197313
54	0x3f8428dd	1.032497
55	0x3f84da34	1.037909
56	0x3f8363ba	1.0264809
57	0x3f84f2bd	1.0386578
58	0x3f84c683	1.0373081
59	0x3f8340d1	1.0254155
60	0x3f850fbf	1.039543
61	0x3f85458a	1.0411847
62	0x3f8472ff	1.0347594
63	0x3f84f9b5	1.0388705
64	0x3f86180e	1.0476091
65	0x3f84dfed	1.0380837
66	0x3f839700	1.0280457
67	0x3f846af2	1.0345137
68	0x3f8339a1	1.0251962
69	0x3f847ddf	1.0350913
70	0x3f84ae24	1.0365644
71	0x3f84a3d1	1.0362493
72	0x3f842b92	1.0325797
73	0x3f82e9f4	1.0227647
74	0x3f8632a9	1.048421
75	0x3f84d3b4	1.0377107
76	0x3f84d3fe	1.0377195
77	0x3f83d0ea	1.029813
78	0x3f84f085	1.0385901
79	0x3f83f5c0	1.0309372
80	0x3f83eca8	1.0306597
81	0x3f87b0c2	1.0600817
82	0x3f83514c	1.0259185
83	0x3f83e529	1.0304309
84	0x3f8634b2	1.0484831
85	0x3f84163c	1.0319285
86	0x3f854bc5	1.0413748
87	0x3f844f11	1.0336629
88	0x3f83f556	1.0309246
89	0x3f842531	1.032385
90	0x3f8518df	1.0398215
91	0x3f80f546	1.0074852
92	0x3f835fba	1.0263588
93	0x3f834afe	1.0257261
94	0x3f8711b8	1.0552282
95	0x3f8514ae	1.0396936
96	0x3f8642a9	1.0489093
97	0x3f846c91	1.0345632
98	0x3f83298d	1.0247055
99	0x3f8498de	1.0359151
100	0x3f85c09c	1.0449405
101	0x3f8373da	1.026973
102	0x3f842fe2	1.0327113
103	0x3f838a0d	1.0276505
104	0x3f85289d	1.0403019
105	0x3f840e88	1.0316935
106	0x3f838908	1.0276194
107	0x3f85cd4c	1.0453277
108	0x3f8394d1	1.027979
109	0x3f8382af	1.0274256
110	0x3f85b68a	1.0446332
111	0x3f845474	1.0338273
112	0x3f84bd9a	1.0370362
113	0x3f83dc5c	1.0301623
114	0x3f84d4eb	1.0377477
115	0x3f83bf10	1.0292683
116	0x3f83c317	1.0293912
117	0x3f8330d8	1.0249281
118	0x3f82ebf3	1.0228256
119	0x3f835b63	1.0262264
120	0x3f858640	1.0431595
121	0x3f84ebe2	1.0384486
122	0x3f83e6d9	1.0304824
123	0x3f86b158	1.0522871
124	0x3f847d6c	1.0350776
125	0x3f854c91	1.0413991
126	0x3f852a65	1.0403563
127	0x3f839dca	1.0282528

model.3.bias f4 [128]
0	0x3cd2d14b	0.025734564
1	0x3d0b7eeb	0.034056585
2	0x3cf1d6d7	0.029521389
3	0x3cee36f4	0.029078938
4	0x3cfb84a0	0.030702889
5	0x3c4e4790	0.012590304
6	0x3cb571d2	0.022149
7	0x3cf03d55	0.02932612
8	0xbc5f07f8	-0.01361274
9	0x3d026992	0.03183896
10	0xbc338e44	-0.010959212
11	0x3cfe1a43	0.031018382
12	0x3d3a4339	0.045474265
13	0x3cb13517	0.02163176
14	0x3d1ee3bf	0.038791414
15	0x3d27579a	0.040855028
16	0x3c8d08d9	0.017216133
17	0x3cac39f7	0.021023734
18	0x3d284369	0.041079912
19	0x3c0a5348	0.008442707
20	0x3be495a9	0.0069758487
21	0x3d0ae080	0.033905506
22	0x3b933bb4	0.004493201
23	0x3cbb0707	0.0228305
24	0x3bcce34c	0.006252682
25	0x3d16674d	0.03671961
26	0xbc916eb9	-0.017752992
27	0xbafe3b49	-0.001939633
28	0x3d019cd1	0.031643692
29	0x3d0a80e4	0.033814326
30	0x3c2698d9	0.010168278
31	0x3c414719	0.011796736
32	0x3d134bf4	0.035961106
33	0x3c191044	0.009342257
34	0x3bdce86b	0.0067415736
35	0x3c8646ad	0.016391123
36	0x3ccabbdf	0.024747787
37	0x3c437c17	0.011931441
38	0x3cf3c0be	0.029754993
39	0xbb90ed9c	-0.0044228565
40	0x3c956abf	0.018239377
41	0x3a90a1b8	0.0011034524
42	0x3c7a0af0	0.015261397
43	0x3d1b9831	0.037986938
44	0x3c9b5c9b	0.018965056
45	0x3bab849a	0.005234313
46	0x3d00e2c4	0.03146626
47	0x3cf5eb06	0.030019294
48	0x3cb7ae73	0.022422051
49	0x3cf65ffb	0.030075064
50	0x3d16b3bb	0.036792498
51	0x3ce5317f	0.027977703
52	0xbb80abf7	-0.00392675
53	0x3c38c53d	0.011277494
54	0x3c9667c8	0.018360034
55	0xbaca2064	-0.001542103
56	0xba5556d5	-0.0008138244
57	0x3d04be46	0.03240802
58	0x3ce8f28e	0.028435972
59	0x3ccc56b3	0.024943685
60	0x3cabc747	0.020969046
61	0x3d1b3f30	0.037902057
62	0x3d0098f5	0.03139587
63	0x3d22cea7	0.03974786
64	0x3d42ef43	0.04759146
65	0x3d19ceb9	0.03755066
66	0x3cca7767	0.024715139
67	0x3cab0899	0.020878123
68	0x3c2067df	0.00979039
69	0x3d019686	0.03163769
70	0xbc753e8f	-0.014968528
71	0x3cc77e54	0.02435223
72	0x3cb4a272	0.022050116
73	0x3cc47b03	0.023984438
74	0x3c93f5eb	0.018061599
75	0x3c41f5de	0.011838404
76	0x3d1d6302	0.0384245
77	0x3cb9204f	0.022598414
78	0x3d11fb80	0.03564024
79	0x3c8bb613	0.017054593
80	0xba4371b2	-0.00074556016
81	0x3d530bc2	0.051524885
82	0x3aaf7404	0.0013386016
83	0x3cb8906c	0.022529803
84	0x3c76297f	0.015024542
85	0x3c922a67	0.017842485
86	0xbb3f3f84	-0.0029182145
87	0x3d156164	0.036469832
88	0xbc86acd7	-0.016439838
89	0x3cee547a	0.029093016
90	0x3cd55a9e	0.026044186
91	0x3ad6c9f4	0.0016387091
92	0xbc3669ef	-0.011133655
93	0x3cbf5792	0.023357186
94	0x3d495246	0.049150728
95	0x3d29abcb	0.0414236
96	0x3c9e9e01	0.019362452
97	0x3cba36b4	0.022731163
98	0x3bf2f7cc	0.0074147936
99	0x3cbabc94	0.022795
100	0x3d30d267	0.043169405
101	0x3ccb5a54	0.024823345
102	0x3d0df937	0.034661498
103	0x3cd62af2	0.026143525
104	0x3d17ae53	0.037031483
105	0x3c7e76f0	0.015531287
106	0xbc8a52c3	-0.016885167
107	0x3d2cafd0	0.042159855
108	0x3ccc5985	0.02494503
109	0x3c16c18a	0.009201417
110	0x3d363469	0.044483576
111	0x3c1d1e4e	0.009589745
112	0x3bdef810	0.0068044737
113	0x3be6b1ea	0.007040252
114	0x3d06d8d8	0.032921642
115	0x3d096d09	0.03355125
116	0x3c6515f1	0.013982282
117	0x3c277680	0.010221124
118	0x3c720f15	0.014774104
119	0x3b069323	0.0020534478
120	0x3d074420	0.033023953
121	0x3d05e634	0.032690242
122	0x3c3140ac	0.010818642
123	0x3baab49d	0.005209519
124	0x3cc21e55	0.023696104
125	0x3d09e850	0.033668816
126	0x3d04d58e	0.032430224
127	0x3c3de420	0.011590034

model.3.running_mean f4 [128]
0	0xbe3d9051	-0.18512084
1	0xbe315ec2	-0.17321303
2	0x3afa9b09	0.001911969
3	0x3c2b8467	0.010468579
4	0xbb7eb67a	-0.0038866089
5	0xbda13434	-0.07871285
6	0xbd28722d	-0.04112451
7	0xbc81d9cb	-0.015850922
8	0x3c1c38e2	0.009535046
9	0xbdc54ae6	-0.09633426
10	0x3d8ab6ad	0.06773124
11	0xbcaf6cd0	-0.02141419
12	0xbe7c5dd1	-0.24645163
13	0xbd488f1a	-0.048964597
14	0xbe707c6c	-0.23484963
15	0xbdfdb51c	-0.123880595
16	0x3d892a25	0.066974916
17	0x3c651fdb	0.013984646
18	0xbd9c591b	-0.07634183
19	0xbdcc127f	-0.09964465
20	0xbce64410	-0.028108627
21	0xbe393c0a	-0.1808931
22	0xbca616b8	-0.020274505
23	0xbbf492f2	-0.0074638063
24	0x3944defe	0.00018775088
25	0xbdd892c6	-0.1057487
26	0xbdfda275	-0.12384502
27	0xbdcfaf5b	-0.10140868
28	0x3c191485	0.009343271
29	0x3d40e9f4	0.047098115
30	0x3d434dd9	0.047681663
31	0x3c957657	0.018244905
32	0xbe157dd6	-0.14598784
33	0xbd22ebd9	-0.039775703
34	0xbdefe069	-0.11712725
35	0x3c6644d3	0.014054495
36	0x3c350724	0.011049066
37	0xbde02e4c	-0.109463304
38	0xbcdc534c	-0.026895188
39	0x3e01cca8	0.12675726
40	0xbe103a94	-0.14084846
41	0x3c51f5cc	0.01281495
42	0xbd4e0192	-0.050294466
43	0xbe8e8f34	-0.2784363
44	0x3c0dc7bb	0.0086535765
45	0x3d837c8c	0.0642024
46	0xbdb61d93	-0.088923596
47	0xbdb6c66c	-0.08924565
48	0xbc89b62c	-0.0168105
49	0xbd8e261c	-0.069408625
50	0xbe8a772f	-0.27044055
51	0x3d145ceb	0.036221426
52	0x3ce0bd3b	0.027433982
53	0xbdd1c8c9	-0.10243375
54	0x3dc50aeb	0.09621223
55	0xbd1e31a6	-0.038621567
56	0xbd473f2b	-0.048644226
57	0x3d1197b4	0.035545066
58	0x3ce9e14f	0.028549818
59	0xbd10eacf	-0.03538018
60	0xbdb883f5	-0.09009544
61	0xbd70f4e2	-0.05882729
62	0xbc3a3598	-0.011365317
63	0xbd6f287c	-0.05838822
64	0xbdd2bb75	-0.10289661
65	0xbd9cb6e4	-0.07652071
66	0x3b934023	0.0044937297
67	0xbe3c2ca0	-0.18376398
68	0xbdb12b10	-0.08650792
69	0xbc3632e4	-0.011120532
70	0x3d96e88b	0.07368573
71	0xbe2d5f41	-0.16930868
72	0x3cdedfe2	0.027206365
73	0xbe304b6e	-0.17216274
74	0xbe0261c0	-0.12732601
75	0xbdeeb7b2	-0.11656131
76	0xbd2be346	-0.04196479
77	0xbe12b216	-0.14325747
78	0xbd0976a3	-0.033560406
79	0xbde3a1e7	-0.11114865
80	0x3daa1090	0.0830394
81	0xbdcbf993	-0.09959712
82	0xbb0a3588	-0.0021089036
83	0x3c9a2359	0.018815683
84	0xbd103530	-0.035206974
85	0xbde7f203	-0.11325457
86	0xbe015563	-0.12630229
87	0xbded8e3b	-0.11599394
88	0x3d176a62	0.03696669
89	0xbd827cae	-0.06371437
90	0xbdac23e0	-0.0840528
91	0xbe036469	-0.12831272
92	0xbd1fecd4	-0.039044216
93	0x3c118db3	0.008883881
94	0xbc56a9e6	-0.01310203
95	0xbe804c06	-0.25058
96	0xbbb45a48	-0.0055039264
97	0xbdf0760c	-0.11741266
98	0xbe03cd9e	-0.12871405
99	0x3c4959a6	0.01228944
100	0x3c2edadf	0.0106723
101	0xbd7429d1	-0.05961019
102	0xbe44c199	-0.19214477
103	0xbdbeed03	-0.0932255
104	0xbe513b02	-0.20432666
105	0x3d50788f	0.050896224
106	0xba8518f1	-0.0010154528
107	0xbe7e8aab	-0.24857585
108	0xbd464733	-0.048407745
109	0x3d20c967	0.039254572
110	0xbdda4dc3	-0.10659363
111	0xbd64217d	-0.055696
112	0xbcacdfd6	-0.021102827
113	0x3cfd285d	0.030903036
114	0xbd228755	-0.039679844
115	0xbe247d72	-0.16063479
116	0x3b3228ab	0.0027184885
117	0xbc25d918	-0.01012256
118	0xbe37f06b	-0.17962806
119	0x3d99cd8a	0.075099066
120	0xbe143f88	-0.1447736
121	0xbd539b68	-0.05166188
122	0x3d82f938	0.06395191
123	0xbe302283	-0.17200665
124	0x3d83dbd5	0.06438414
125	0xbe62969a	-0.22127762
126	0xbd4f6874	-0.050636724
127	0xbd958074	-0.07299891

model.3.running_var f4 [128]
0	0x3a9b3c79	0.0011843584
1	0x3ca362b7	0.019944532
2	0x3b20b8cd	0.0024524212
3	0x3b00bfa6	0.0019645481
4	0x3afbe3fb	0.0019217724
5	0x3ae47c3a	0.0017432042
6	0x3b28185a	0.002564928
7	0x3b189478	0.0023281854
8	0x3ac43a86	0.0014971055
9	0x3b09efe1	0.002104752
10	0x3b2bc3e1	0.0026209282
11	0x3af986f1	0.0019037408
12	0x3bba11a0	0.0056783706
13	0x3abf0770	0.001457436
14	0x3ce2670c	0.027637027
15	0x3bce6a62	0.006299303
16	0x3a61f99f	0.0008620265
17	0x3a82e68f	0.0009986925
18	0x3b0108df	0.0019689125
19	0x3be37221	0.0069410955
20	0x3a941177	0.0011296709
21	0x3bf2eb3b	0.0074132956
22	0x3aa4acc1	0.0012563692
23	0x3a4da103	0.0007844122
24	0x3a7c7620	0.0009630639
25	0x3b65cb6c	0.0035063876
26	0x3b188cf0	0.0023277365
27	0x3b807442	0.003920109
28	0x3afb5bbf	0.0019177123
29	0x3b1dcf1a	0.002407974
30	0x3b4cb4c2	0.003123567
31	0x3ab8296f	0.0014050434
32	0x3acae762	0.0015480334
33	0x3b4ebb7d	0.0031544857
34	0x3b5a21d5	0.0033284326
35	0x3aab6ef5	0.0013079332
36	0x3a94c12f	0.0011349077
37	0x3b5fb7b4	0.0034136595
38	0x3a99a8f7	0.0011723329
39	0x3a5df5f8	0.0008467133
40	0x3b59c8e3	0.003323131
41	0x3b2df285	0.0026542258
42	0x3ae1ca9b	0.0017226519
43	0x3c1da3a9	0.009621539
44	0x3b06fb68	0.0020596627
45	0x3b71aadc	0.0036875522
46	0x3ac3436f	0.0014897416
47	0x3ad14b91	0.0015967955
48	0x3b1f4b97	0.002430653
49	0x3b4efe67	0.003158474
50	0x3c065700	0.008199453
51	0x3a8cfcb9	0.001075647
52	0x3b00c565	0.0019648906
53	0x3a711cd8	0.00091977185
54	0x3aac2db4	0.0013136179
55	0x3b3c1e09	0.0028704426
56	0x3b81fed7	0.003967147
57	0x3a9a5c90	0.0011776853
58	0x3a9c6537	0.001193202
59	0x3a9fbef8	0.001218765
60	0x3af9f871	0.0019071234
61	0x3b460b4d	0.0030219138
62	0x3b2fccd0	0.0026824959
63	0x3b18e878	0.0023331922
64	0x3b7e1984	0.0038772533
65	0x3b0fbfa2	0.002193429
66	0x3abfc99c	0.0014632228
67	0x3aa02c11	0.0012220164
68	0x3b445d3a	0.0029962794
69	0x3aa01c25	0.0012215419
70	0x3b255b60	0.0025231466
71	0x3b37d2b2	0.0028049168
72	0x3b1f4b1a	0.0024306239
73	0x3ad00a20	0.0015872158
74	0x3a9d9cef	0.0012024919
75	0x399ce5f4	0.00029925967
76	0x3b010c22	0.001969107
77	0x3af7d809	0.0018908988
78	0x3b8ad68c	0.0042370018
79	0x3b44f35b	0.0030052278
80	0x3a6452fa	0.0008709874
81	0x3bd38d51	0.006456055
82	0x3a3e44c4	0.00072581717
83	0x3b1f8521	0.0024340826
84	0x3a83a48b	0.0010043544
85	0x3b193e48	0.002338307
86	0x3ba95723	0.005167858
87	0x3b689755	0.0035490592
88	0x3acf027b	0.0015793586
89	0x3a9e698a	0.0012085896
90	0x3a9fd048	0.001219281
91	0x3b857dfd	0.004073857
92	0x39e406c6	0.00043492595
93	0x3ac24c08	0.0014823684
94	0x3ab9fe1c	0.001419011
95	0x3bfe5bc7	0.0077624056
96	0x3a83a570	0.0010043811
97	0x3b40c557	0.0029414499
98	0x3a639e12	0.0008682917
99	0x3b2aaa19	0.0026041328
100	0x3aa3556f	0.0012461374
101	0x3b107d50	0.0022047348
102	0x3b2e09ad	0.002655606
103	0x3bdc1907	0.0067168507
104	0x3b0bf156	0.0021353564
105	0x3bb264fa	0.0054441663
106	0x3a9b72cf	0.0011859777
107	0x3bc1f826	0.005919474
108	0x3b69e6a1	0.0035690444
109	0x3a8497aa	0.0010116
110	0x3b686b96	0.0035464517
111	0x3b03e9df	0.0020128412
112	0x3b301958	0.0026870575
113	0x3b411040	0.0029459149
114	0x3ac175f2	0.0014759882
115	0x3b28d585	0.0025762033
116	0x3a7a9368	0.00095587084
117	0x3b69200d	0.0035572082
118	0x3bb3f095	0.005491326
119	0x3b85bb2e	0.0040811514
120	0x3c206ce2	0.009791585
121	0x3aca16c2	0.0015418159
122	0x3b40103a	0.0029306547
123	0x3a1ecd48	0.0006057811
124	0x3b2838a3	0.0025668524
125	0x3a906431	0.0011016187
126	0x3a8056cf	0.0009791496
127	0x3a83a1e1	0.001004275

model.5.weight f4 [1, 128, 4, 4]
0	0xbc883c72	-0.016630385
1	0xbd321566	-0.04347744
2	0xbd033d2f	-0.03204077
3	0xbd17f8d2	-0.037102528
4	0xbd2d2c58	-0.042278618
5	0xba85704e	-0.0010180564
6	0xbcf94b43	-0.030431395
7	0xbcda5518	-0.026651904
8	0xbcecb5e5	-0.028895328
9	0xbd1ce2ce	-0.038302235
10	0xbbac328d	-0.0052550496
11	0xbd2f3f85	-0.042785186
12	0xbc589b1f	-0.0132205775
13	0x3cac5b55	0.021039644
14	0x3c64945e	0.013951389
15	0x3c224797	0.009904764
16	0x3a05b890	0.00051010493
17	0x3c2c7d24	0.010527883
18	0xbcacca0e	-0.021092441
19	0x3b68917d	0.0035487108
20	0xbc65b9f9	-0.01402139
21	0xbd119165	-0.03553905
22	0xbb95fcf8	-0.0045772754
23	0xbb82d7f3	-0.0039930283
24	0xbb1678ea	-0.0022960254
25	0xbca3c87b	-0.019993057
26	0xbbea0e3e	-0.007142811
27	0xbd061b95	-0.032741148
28	0xbca99d77	-0.020704968
29	0xbccc7208	-0.024956718
30	0xbcc17dc4	-0.02361954
31	0xbd0da99d	-0.034585584
32	0x3c0061ed	0.007835847
33	0x3c86cf03	0.016456133
34	0x3caf97b8	0.02143465
35	0x3ce8949f	0.02839118
36	0x3c77d7aa	0.015127102
37	0x3cc2e594	0.023791112
38	0x3d1b7369	0.03795186
39	0x3c438b1b	0.011935021
40	0x3cedb1cc	0.029015444
41	0x3cb77eac	0.022399269
42	0x3d0651a1	0.03279269
43	0x3c4f0c4e	0.012637211
44	0x3ca7ee16	0.02049927
45	0x3cd7069a	0.026248265
46	0x3b37eeea	0.0028065988
47	0x3d1acc30	0.037792385
48	0x39620afe	0.00021557134
49	0x3c902e0c	0.017600082
50	0x3d106cf3	0.035260152
51	0x3c722fc4	0.014781896
52	0x3d097710	0.033560812
53	0x3ceeed7b	0.029165974
54	0x3d281a7f	0.041040894
55	0xba67f7ba	-0.0008848865
56	0x3cb063db	0.02153199
57	0x3ccf85d2	0.025332365
58	0x3c2c0125	0.01049832
59	0x3ccf3828	0.025295332
60	0x3a8021f7	0.0009775747
61	0x3c31ee8e	0.0108600985
62	0x3c4a3638	0.012342028
63	0x3c082fdc	0.008312192
64	0x3c72776c	0.01479898
65	0xbb2c9a58	-0.0026337113
66	0x3d0d9e10	0.03457457
67	0xba28b043	-0.00064349564
68	0x3ca5d231	0.020241829
69	0x3cec6283	0.028855568
70	0x3d2540b8	0.040344924
71	0x3cbf1e1b	0.023329785
72	0x3b298e96	0.0025872341
73	0x3ca92bf3	0.02065084
74	0x3c586ba3	0.013209256
75	0x3d2dd583	0.04243995
76	0x3c2e05b5	0.010621478
77	0x3d22e0e4	0.039765254
78	0x3c54ee18	0.012996219
79	0x3cc5ec93	0.024160659
80	0xbc60d1a3	-0.013721856
81	0xbc506bdf	-0.012721031
82	0xbd0c12f3	-0.03419776
83	0xbc71bf9d	-0.014755157
84	0xbc65b89f	-0.014021068
85	0xbcb028ad	-0.02150377
86	0xbba25ebe	-0.004955142
87	0xbd039b4c	-0.032130525
88	0xbb9c76aa	-0.004774888
89	0xbce0255a	-0.02736156
90	0xbbad437a	-0.005287585
91	0xbbee934a	-0.007280742
92	0xbaa6f4d7	-0.0012737763
93	0xbc0e6938	-0.008692078
94	0xbb485e5d	-0.0030573823
95	0xbcd75797	-0.026286883
96	0x3d0fb58a	0.03508524
97	0x3d0fb2c5	0.035082597
98	0x3ca26e3f	0.01982796
99	0x3ccbcf7a	0.024879206
100	0x3cf84f28	0.030311182
101	0x3c41003b	0.01177984
102	0x3d03e663	0.032202136
103	0x3bbffa8b	0.0058587245
104	0x3aa4c37d	0.0012570467
105	0x3d12d244	0.035845056
106	0x3d0c18cd	0.03420334
107	0xbc19a3bc	-0.009377416
108	0x3a98b9be	0.0011652035
109	0x3b889966	0.004168677
110	0x3d00fc0a	0.031490363
111	0xbc7e5314	-0.015522737
112	0x3d1b439b	0.03790627
113	0x3c61da31	0.013784931
114	0x3d25e9b4	0.04050608
115	0x3c801d2b	0.015638908
116	0x3d05ed1d	0.032696832
117	0x3c2b33c1	0.010449351
118	0x3b9c3366	0.0047668694
119	0x3b501ee7	0.00317567
120	0x3c3ef34e	0.011654688
121	0x3d018759	0.03162322
122	0x3d1f4cc2	0.03889156
123	0xbc23957d	-0.009984371
124	0x3d0418aa	0.032250084
125	0x3d0f9b80	0.035060406
126	0x3bb4d971	0.005519085
127	0x3c253d6e	0.010085447
128	0xbd05005d	-0.03247105
129	0xbc94e496	-0.018175405
130	0x3a066c73	0.00051278545
131	0xbcb00a32	-0.021489237
132	0xbc1a44a9	-0.009415784
133	0xbc14122e	-0.0090375375
134	0x3b7a5f8a	0.0038203918
135	0xbcd8ac51	-0.026449354
136	0xbc9ed089	-0.019386547
137	0xbcb90aa1	-0.022588076
138	0x3be239f0	0.0069038793
139	0xbc9c4f90	-0.019080907
140	0x3b8e42a1	0.004341439
141	0xbd16ea3b	-0.036844473
142	0xbd15b068	-0.036545187
143	0xbcf425b2	-0.02980313
144	0x3cde479f	0.027133761
145	0x3cc16568	0.023607925
146	0x3d24f356	0.040271126
147	0x3ced03fa	0.02893256
148	0x3ca8c784	0.020602949
149	0x3be9fad5	0.007140497
150	0x3cb13e9e	0.021636304
151	0x3c0a947b	0.008458252
152	0xbbad70e5	-0.005292999
153	0x3d28d4ae	0.041218452
154	0x3cb45e41	0.0220176
155	0x3c76db27	0.015066898
156	0xbc8fabcd	-0.017537976
157	0x3bd7e2fc	0.006588338
158	0xbc29b3e1	-0.010357828
159	0x3cead4a5	0.02866585
160	0x3bdb3435	0.006689573
161	0x3c670f95	0.014102836
162	0xbcb3db4d	-0.021955157
163	0xbc2f1cf6	-0.010688057
164	0x3c49c789	0.012315639
165	0xbc4f788c	-0.012663018
166	0xbce05114	-0.027382411
167	0xbcc6bd30	-0.024260134
168	0xbc6b8886	-0.014375811
169	0xbcd8a3d5	-0.026445309
170	0x3be7c87b	0.0070734597
171	0xbca0bdd4	-0.019621767
172	0x3ce5a4d0	0.02803269
173	0xba0503ef	-0.00050741335
174	0xbc815048	-0.015785351
175	0x3be7754f	0.007063545
176	0x3cb32dd8	0.021872446
177	0x3c81dda4	0.015852757
178	0x3cec85f0	0.02887246
179	0x3c6cdefb	0.01445746
180	0x3b38aa1a	0.002817756
181	0x3c5a0ee6	0.013309216
182	0x3d0b1b32	0.033961482
183	0xbbf00158	-0.007324379
184	0x3ca82625	0.020526001
185	0x3d248098	0.0401617
186	0x3cfaa23f	0.030594943
187	0xbc150144	-0.00909454
188	0x3d1d982d	0.038475204
189	0x3c942e73	0.018088555
190	0x3ca2dc47	0.019880427
191	0x3a24e3bf	0.00062900403
192	0xbc8906d8	-0.016726896
193	0xbc9e241a	-0.019304324
194	0xbca0c676	-0.019625884
195	0xbc65455a	-0.0139935855
196	0xbc4e2e87	-0.012584335
197	0xbd092472	-0.033482023
198	0xbcd06338	-0.025437936
199	0xbd33b279	-0.043871377
200	0xbd278b76	-0.040904485
201	0xbc8ae3c4	-0.01695431
202	0xbcfe1371	-0.03101513
203	0xbce59188	-0.028023496
204	0x3beecb1b	0.0072873957
205	0x3c259678	0.010106675
206	0xbba455ec	-0.0050151255
207	0xbc933cfb	-0.017973414
208	0x3cf5e707	0.030017389
209	0x3cb584fe	0.022158142
210	0x3d19347a	0.03740356
211	0x3c507c63	0.012724969
212	0x3cbceec2	0.023063067
213	0x3d206fa4	0.03916897
214	0x3cbac3ae	0.022798385
215	0x3b214956	0.0024610362
216	0x3cd90d70	0.026495665
217	0x3d055094	0.03254755
218	0x3d2a5b7f	0.041591164
219	0xbb36a887	-0.0027871446
220	0x3d22b779	0.039725754
221	0x3c7bddd1	0.015372709
222	0x3a37f25e	0.00070170115
223	0xbaef2972	-0.0018246605
224	0x3cb83f73	0.022491192
225	0xbb97905d	-0.0046253637
226	0xbbf9de90	-0.0076254085
227	0xbc957c6b	-0.018247804
228	0xbcd851bb	-0.02640616
229	0xbd287a17	-0.04113206
230	0xbd1d938c	-0.03847079
231	0xbd2956ef	-0.041342672
232	0xbcc8d984	-0.024517782
233	0xbb8d2463	-0.004307316
234	0xbd1b68d0	-0.037941754
235	0xbcbc2b7c	-0.022969954
236	0xbb91a908	-0.004445199
237	0xbd403c38	-0.04693243
238	0xbd254594	-0.040349558
239	0xbcfacae1	-0.030614318
240	0xbcc6eca9	-0.02428277
241	0xbd293f84	-0.04132034
242	0xb983dbf7	-0.00025150154
243	0xbbbc9b95	-0.0057558515
244	0xbc0bedcc	-0.008540582
245	0xbc9d0442	-0.01916707
246	0xbd2bc6e6	-0.04193773
247	0xbc9983e1	-0.018739643
248	0xbd1edc83	-0.038784515
249	0xbd054837	-0.032539573
250	0xbd2a58e2	-0.04158867
251	0xbc3b4946	-0.011431044
252	0xbcb15683	-0.021647697
253	0xbc9a37a0	-0.018825352
254	0xbabf289e	-0.0014584248
255	0xbc9594ab	-0.018259367
